Model/checkpoint_10.pth (torch, 224519 bytes, 10 tensors)

conv1.weight f4 [32, 1, 5, 5]
-0.1975596 0.19566946 0.2087498 0.14254986 -0.07740087 -0.0068580257 0.045245714 0.030011317
0.2165991 -0.12607569 -0.041999158 0.041767817 0.29825205 0.124032155 -0.34078312 -0.13780151
0.2756933 0.18300186 -0.093434274 -0.2624748 0.16167207 0.3463592 -0.02870081 -0.29529175
-0.11065356 -0.12707132 0.11706069 -0.077506885 -0.028618086 0.032486826 -0.01341063 0.077207476
0.18064846 -0.31256998 0.15295233 0.0575055 0.15481104 -0.10905188 -0.30393526 -0.37869576
-0.05525615 0.29550892 0.2496947 0.2419589 -0.2633721 0.033373866 -0.08871088 -0.021537779
0.2259005 0.10657147 -0.0046653016 0.061847825 0.030234644 0.00047152973 -0.05866317 -0.21031874
0.30974784 0.050569624 -0.30447453 -0.17021248 -0.21547337 0.33350256 0.27545044 -0.32445252
0.008917895 -0.13680086 0.1814922 0.2362229 -0.23678668 -0.15577751 -0.02972533 0.096800104
0.31324497 0.23155339 0.113139905 -0.015931826 -0.12409292 0.23735273 0.3622162 0.04703066
0.04146446 0.08417812 -0.11207793 0.19377144 0.26028335 -0.030446969 0.12480327 0.16750625
-0.16622913 -0.043023344 -0.18660095 -0.2775178 -0.24208951 -0.022249011 0.012705513 -0.23696856
-0.06228927 -0.10338152 0.061295357 0.1424862 0.153518 0.11915665 0.317343 0.15839818
0.017567702 -0.18612878 -0.23364808 0.22614321 0.36432707 0.15693605 -0.12299082 -0.1701591
-0.27753028 0.08159113 0.30782166 0.10735941 -0.27903536 -0.34412113 -0.2888768 0.011659169
0.012320688 0.058615725 -0.0015247497 -0.16144468 0.057635374 0.2582229 0.0412984 -0.030235432
-0.3283986 0.08069424 -0.05919639 -0.31814736 -0.28492787 0.19534457 0.36169195 -0.31547168
-0.1513928 0.3861683 0.4891879 0.098762505 0.137704 0.24244894 0.4071496 -0.13145335
-0.33214206 0.08831352 0.3032233 -0.32918927 -0.31441605 -0.030203972 -0.24135156 -0.23049895
-0.20600933 -0.1840403 -0.10974922 -0.000531024 -0.048555363 -0.13560817 -0.037355416 -0.070351504
0.034103677 0.015178627 -0.025101712 -0.101252615 -0.13380446 0.12044876 0.07728665 0.18516009
0.064896844 0.15322664 0.17736812 0.09236676 0.13791108 0.26385447 0.2867993 0.0072416603
-0.032432847 -0.107986845 0.1112597 -0.14310245 0.058328483 0.042883225 -0.19702755 -0.27631357
-0.26745957 0.07798065 0.03954313 0.20664233 -0.14280428 0.16239479 -0.19028014 0.36007982
0.33261612 0.28752583 -0.020998813 0.060898546 -0.32937375 -0.11310723 0.20079368 0.021592332
0.15005158 0.10884927 -0.05664875 0.16634886 -0.18306191 0.01187744 0.12887594 -0.005302489
-0.10754024 -0.043251425 0.18416199 -0.12674272 -0.088100545 0.1083717 -0.11860267 -0.05244927
0.0068351473 0.006074626 -0.08965513 0.015574159 -0.03776393 -0.10398167 0.015968483 0.06598801
-0.009409593 0.1396916 -0.18634482 -0.07468292 -0.0137883 0.41166165 -0.027417388 -0.026820047
-0.29335126 -0.27274325 0.017116247 0.32053357 -0.03148982 -0.41051298 0.004838393 -0.027100138
0.36360356 0.23430271 -0.19975877 -0.10104667 0.055751126 0.083689295 0.28882983 0.28235522
-0.08882355 0.06687346 -0.09333596 0.23975885 0.14555797 -0.08498273 -0.30828807 0.063065775
00000000: 104d 4abe 935d 483e 82c2 553e 97f8 113e
00000010: 5984 9ebd 4ab9 e0bb 9253 393d 4bda f53c
00000020: 28cc 5d3e fc19 01be 4f07 2cbd bb14 2b3d
00000030: 7eb4 983e 9204 fe3d 207b aebe d71b 0dbe
00000040: ac27 8d3e d764 3b3e 785a bfbd 1963 86be
00000050: 5d8d 253e fe55 b13e f61d ebbc 7b30 97be
00000060: 559e e2bd fc1e 02be 84bd ef3d eebb 9ebd
00000070: 7a70 eabc e810 053d 42b8 5bbc f41e 9e3d
00000080: e9fb 383e 2c09 a0be 899f 1c3e e38a 6b3d
00000090: c986 1e3e 9856 dfbd 679d 9bbe 69e4 c1be
000000a0: 4654 62bd f24c 973e f8af 7f3e 13c4 773e
000000b0: b5d8 86be 09b3 083d 0dae b5bd ff6f b0bc
000000c0: 7652 673e 2542 da3d 63df 98bb 2554 7d3d
000000d0: a5ae f73c a637 f739 cb48 70bd cc5d 57be
000000e0: 4597 9e3e 1822 4f3d 16e4 9bbe 2e4c 2ebe
000000f0: 0da5 5cbe d9c0 aa3e d707 8d3e a41e a6be
00000100: 5d1c 123c 8615 0cbe 17d9 393e 6ae4 713e
00000110: 3578 72be 2484 1fbe 8982 f3bc 223f c63d
00000120: a561 a03e 551c 6d3e e5b5 e73d 7683 82bc
00000130: 6e24 febd 980c 733e 6774 b93e 39a3 403d
00000140: a3d6 293d 9465 ac3d 1d89 e5bd 056c 463e
00000150: dc43 853e ec6b f9bc db98 ff3d c286 2b3e
00000160: f837 2abe 3f39 30bd 5214 3fbe d016 8ebe
00000170: 50e6 77be 8f43 b6bc c92a 503c e3a7 72be
00000180: 0923 7fbd b1b9 d3bd d710 7b3d e7e7 113e
00000190: d333 1d3e 6708 f43d c87a a23e 2233 223e
000001a0: 24ea 8f3c 8b98 3ebe 7141 6fbe 1692 673e
000001b0: 1489 ba3e d8b3 203e 9ce2 fbbd 303e 2ebe
000001c0: 7318 8ebe 4019 a73d cd9a 9d3e 40df db3d
000001d0: b9dd 8ebe a530 b0be a9e7 93be 1906 3f3c
000001e0: b6dc 493c 0b17 703d 1cda c7ba c151 25be
000001f0: 1213 6c3d cb35 843e 8328 293d 4cb0 f7bc
00000200: dc23 a8be 0643 a53d ea77 72bd 36e4 a2be
00000210: 11e2 91be 6808 483e b02f b93e 8185 a1be
00000220: b706 1bbe dab7 c53e d676 fa3e ff43 ca3d
00000230: 4702 0d3e 8944 783e ea75 d03e b59b 06be
00000240: 860e aabe b8dd b43d 1640 9b3e 7f8b a8be
00000250: 24fb a0be 526e f7bc dd24 77be eb07 6cbe
00000260: 1cf4 52be 0f75 3cbe 33c4 e0bd 6b34 0bba
00000270: fde1 46bd dedc 0abe fe01 19bd 7314 90bd
00000280: 4cb0 0b3d c7af 783c 1ba2 cdbc 885d cfbd
00000290: 0904 09be d7ad f63d 7748 9e3d 9b9a 3d3e
000002a0: a3e8 843d 72e7 1c3e fd9f 353e c92a bd3d
000002b0: 9038 0d3e ef17 873e 5cd7 923e 734b ed3b
000002c0: 4ed8 04bd 3528 ddbd 20dc e33d 7389 12be
000002d0: d9e9 6e3d 52a6 2f3d 97c1 49be f978 8dbe
000002e0: 76f0 88be 52b4 9f3d faf7 213d 0c9a 533e
000002f0: 493b 12be d24a 263e ccd8 42be 625c b83e
00000300: a94c aa3e 9636 933e b405 acbc c170 793d
00000310: ada3 a8be c3a4 e7bd dc9c 4d3e 67e2 b03c
00000320: 1fa7 193e 5eec de3d 8508 68bd 5b57 2a3e
00000330: 9574 3bbe 9899 423c 0ef8 033e 80c0 adbb
00000340: 0f3e dcbd 6828 31bd f694 3c3e d8c8 01be
00000350: 0f6e b4bd fbf1 dd3d f5e5 f2bd 0cd5 56bd
00000360: 5ff9 df3b a80d c73b 1c9d b7bd c22a 7f3c
00000370: 5aae 1abd 58f4 d4bd 56d0 823c b924 873d
00000380: b22a 1abc 510b 0f3e 2dd1 3ebe 5cf3 98bd
00000390: 52e8 61bc 51c5 d23e 6e9a e0bc b7b5 dbbc
000003a0: 2332 96be 01a5 8bbe 5f37 8c3c fa1c a43e
000003b0: 78fb 00bd c22e d2be 628b 9e3b 1c01 debc
000003c0: 3f2a ba3e 0ded 6f3e 908d 4cbe 8ef1 cebd
000003d0: 4b5b 643d 4b65 ab3d 81e1 933e dd90 903e
000003e0: 1fe9 b5bd f4f4 883d ec26 bfbd 5883 753e
000003f0: 260d 153e 6d0b aebd efd7 9dbe a128 813d

conv1.bias f4 [32]
-0.14175643 0.057208642 -0.017225256 -0.16283728 -0.046875913 -0.17820258 -0.24699436 0.018990234
-0.18635736 -0.045117944 -0.15975456 0.00032524733 -0.044955995 -0.04637716 -0.2481603 -0.107958674
0.08675834 0.08695086 -0.042576555 -0.29582593 -0.37389767 -0.12434771 0.028808597 -0.12582254
-0.3484668 -0.11346661 0.087851495 -0.027248042 -0.1094817 -0.21432492 -0.043216012 -0.19078684
00000000: 9928 11be 9c53 6a3d fb1b 8dbc d1be 26be
00000010: f500 40bd bd7a 36be 17ec 7cbe 6891 9b3c
00000020: 77d4 3ebe 98cd 38bd b396 23be f585 aa39
00000030: c723 38bd faf5 3dbd bc1d 7ebe 7019 ddbd
00000040: 5bae b13d 4b13 b23d c164 2ebd 7f76 97be
00000050: 846f bfbe 03aa febd 0200 ec3c a0d7 00be
00000060: 3e6a b2be 2f61 e8bd 7ceb b33d 4937 dfbc
00000070: f137 e0bd fe77 5bbe 4603 31bd a05d 43be

conv2.weight f4 [16, 32, 5, 5]
-0.33145976 -0.18841611 0.16427217 0.22762425 0.19059126 -0.16194524 0.06365016 0.18363461
0.14101335 0.057873517 -0.09914914 0.1033024 0.10090308 0.06814979 -0.027417196 0.1383972
0.0845637 0.054093793 -0.0061710426 -0.1504801 0.10410014 -0.05504613 0.002492554 -0.06819166
-0.035870306 -0.11869335 -0.19148687 0.0027866731 0.08873692 0.08832109 -0.19531074 -0.28506106
-0.020121051 0.059878293 0.06925177 -0.12184489 -0.1568565 0.03977664 0.12077501 -0.021549933
-0.0996524 0.058659185 0.038019996 0.037828784 0.061643846 0.16800381 0.08916767 0.033570357
-0.04343646 -0.02779949 0.0015172677 -0.09274024 0.03525672 0.10846492 0.12189763 -0.06144076
-0.13763328 0.08131105 0.11064013 0.11672395 -0.14889577 -0.09581367 0.05231776 0.1179781
0.057210475 -0.1359757 0.00531397 0.10959515 0.06929881 0.08756447 0.0721349 0.023596957
0.07319383 0.009234646 -0.02866172 0.015195954 0.060732026 0.03952353 -0.14263558 -0.15312998
0.07463769 0.04930748 -0.018086292 -0.15962474 -0.20541549 0.13103384 -0.009986716 -0.004928704
0.022075655 -0.1591692 -0.04341963 0.0012440737 0.011950235 0.09237979 0.042797048 -0.15970084
-0.0526413 0.1282053 0.15210402 0.09977807 -0.06268551 0.02724064 -0.06539268 -0.08886557
-0.123034105 -0.028953608 -0.06371242 -0.16117464 -0.19727106 -0.14504288 0.008246485 -0.09703764
-0.024665931 -0.086277016 -0.123270504 0.00047884893 -0.08485193 0.0011894541 0.0609936 -0.03256513
-0.055465404 -0.009048312 0.08013699 0.14366613 0.09800045 0.10415863 0.08497903 -0.085110866
-0.043727756 -0.03552125 0.18511981 -0.015986813 -0.12633105 -0.062336933 -0.14691469 0.11386243
0.041437846 -0.069589935 -0.17772412 0.15359102 0.09038263 -0.11461175 -0.22555667 -0.07037804
0.14023799 0.042926706 -0.18569334 -0.27383783 -0.034076188 0.020878673 -0.019442506 -0.06455549
-0.03537282 -0.07206781 -0.14811039 -0.024065498 -0.09550453 -0.09612593 -0.19948064 -0.055742204
-0.041108828 -0.0032919932 -0.16740707 -0.13192561 -0.05156066 0.0168368 -0.09091919 -0.21650441
-0.072414264 -0.04797509 0.051194932 -0.115820974 -0.093431085 -0.031966466 -0.12930994 -0.005590874
-0.0861397 -0.16004579 -0.069449216 0.0075636865 -0.08716546 -0.23621449 -0.18503481 -0.17850424
0.015940899 -0.08031238 -0.20521525 -0.23327446 -0.05375614 -0.0076686353 -0.09305045 -0.24351865
-0.087041065 0.11031714 0.08243027 -0.10933978 -0.19848724 0.002368835 0.008221576 -0.04963651
-0.020979227 -0.10075964 -0.07303814 0.013656757 0.05448088 -0.047528405 -0.08195901 -0.052634254
0.025335878 0.032600444 0.013729538 0.020318141 -0.009570691 0.032726612 -0.053193208 0.039329246
0.072078265 0.036964845 0.018258043 0.012277128 0.018002875 0.036093753 0.044176336 0.029800344
-0.008622689 0.032824516 -0.06407784 -0.11763123 0.013419041 -0.0036408058 0.02450348 -0.2735778
-0.22328658 0.008014092 0.07059847 -0.19764467 -0.30413786 -0.103914775 0.085767716 0.08475717
-0.25905243 -0.12065981 -0.0065620746 0.09417094 0.16489686 0.08356692 -0.0031874727 -0.015223528
-0.00083623413 -0.0109996125 -0.08039995 -0.049957383 -0.037054803 -0.1232387 -0.13294269 -0.03699444
00000000: 18b5 a9be 27f0 40be f736 283e 5516 693e
00000010: 5b2a 433e f9d4 25be 045b 823d b60a 3c3e
00000020: ce65 103e c80c 6d3d b40e cbbd 3590 d33d
00000030: 46a6 ce3d 1e92 8b3d 079a e0bc ffb7 0d3e
00000040: bc2f ad3d 7491 5d3d 7536 cabb 7517 1abe
00000050: 7432 d53d 0d78 61bd 1e5a 233b 12a8 8bbd
00000060: beec 12bd 8015 f3bd 2215 44be 9ea0 363b
00000070: b4bb b53d b0e1 b43d 8aff 47be 86f3 91be
00000080: e7d4 a4bc f142 753d dfd3 8d3d d089 f9bd
00000090: fe9e 20be d4ec 223d e358 f73d 7c89 b0bc
000000a0: 8f16 ccbd 9d44 703d dbba 1b3d 5bf2 1a3d
000000b0: 427e 7c3d 3109 2c3e 8a9d b63d 1281 093d
000000c0: 6eea 31bd c2bb e3bc 0edf c63a 98ee bdbd
000000d0: 5a69 103d db22 de3d 77a5 f93d 4ea9 7bbd
000000e0: bdef 0cbe 6886 a63d 4b97 e23d f70c ef3d
000000f0: 2278 18be f539 c4bd 264b 563d 819e f13d
00000100: 8855 6a3d 373d 0bbe d020 ae3b 6c73 e03d
00000110: 89ec 8d3d 0055 b33d 76bb 933d 684e c13c
00000120: a6e6 953d ea4c 173c fccb eabc 73f8 783c
00000130: 25c2 783d 6de3 213d 100f 12be 1bce 1cbe
00000140: a5db 983d a4f6 493d b429 94bc ab74 23be
00000150: 7058 52be bc2d 063e 539f 23bc f780 a1bb
00000160: 01d8 b43c 40fd 22be c8d8 31bd 3010 a33a
00000170: ebca 433c 9e31 bd3d f54b 2f3d 9e88 23be
00000180: 679e 57bd 4048 033e 28c1 1b3e 7258 cc3d
00000190: 4361 80bd c327 df3c 99ec 85bd 27ff b5bd
000001a0: 4ef9 fbbd 1e30 edbc a87b 82bd f70a 25be
000001b0: 6d01 4abe 1f86 14be 441c 073c acbb c6bd
000001c0: 3510 cabc 01b2 b0bd 3f75 fcbd 040e fb39
000001d0: d9c6 adbd 75e7 9b3a 6dd4 793d 0463 05bd
000001e0: b12f 63bd 5f3f 14bc dd1e a43d 371d 133e
000001f0: 76b4 c83d 1f51 d53d 7c09 ae3d 9b4e aebd
00000200: e01b 33bd bb7e 11bd 0c90 3d3e c7f6 82bc
00000210: ed5c 01be 0355 7fbd ce70 16be b530 e93d
00000220: bbba 293d 2b85 8ebd 50fd 35be f746 1d3e
00000230: 871a b93d 91b9 eabd 54f8 66be 5d22 90bd
00000240: 8c9a 0f3e ead3 2f3d 6526 3ebe 7934 8cbe
00000250: 7993 0bbd c009 ab3c e445 9fbc ab35 84bd
00000260: 17e3 10bd 4a98 93bd 40aa 17be 0225 c5bc
00000270: e197 c3bd acdd c4bd a744 4cbe f051 64bd
00000280: bb61 28bd 7bbe 57bb c26c 2bbe 8217 07be
00000290: 4531 53bd 54ed 893c d733 babd 55b3 5dbe
000002a0: ee4d 94bd 8781 44bd c7b1 513d 8c33 edbd
000002b0: cc58 bfbd 45ef 02bd d369 04be a633 b7bb
000002c0: 036a b0bd 0be3 23be 643b 8ebd cdd8 f73b
000002d0: ce83 b2bd 36e2 71be c479 3dbe d1c9 36be
000002e0: 7d96 823c d17a a4bd f223 52be 80df 6ebe
000002f0: 662f 5cbd 2d49 fbbb 3c91 bebd f45c 79be
00000300: 9642 b2bd f4ed e13d 34d1 a83d 89ed dfbd
00000310: 3d40 4bbe 753e 1b3b cab3 063c a74f 4bbd
00000320: a1dc abbc 125b cebd 0595 95bd 97c0 5f3c
00000330: 5827 5f3d 25ad 42bd 20da a7bd 0497 57bd
00000340: 308d cf3c 0b88 053d dbf1 603c 3b72 a63c
00000350: 63ce 1cbc 570c 063d 1fe1 59bd b417 213d
00000360: c59d 933d 7368 173d e491 953c 0226 493c
00000370: c47a 933c 0bd7 133d 3ff2 343d da1f f43c
00000380: 2e46 0dbc 0073 063d 3e3b 83bd a4e8 f0bd
00000390: 8adb 5b3c 969a 6ebb 86bb c83c 6412 8cbe
000003a0: 3da5 64be 8a4d 033c ee95 903d 5d63 4abe
000003b0: f5b7 9bbe 45d1 d4bd fca6 af3d 2b95 ad3d
000003c0: 85a2 84be 7e1c f7bd ac06 d7bb b2dc c03d
000003d0: b9da 283e 2225 ab3d ebe4 50bb 1b6c 79bc
000003e0: b936 5bba b837 34bc bba8 a4bd 1da0 4cbd
000003f0: c7c6 17bd 9264 fcbd 2122 08be 7b87 17bd

conv2.bias f4 [16]
-0.009152011 -0.0002684737 0.074345194 0.010784201 -0.013121924 -0.032278683 -0.0004633223 -0.06239065
-0.0469974 -0.026981208 0.045008514 -0.00421357 0.005627731 0.011268107 -0.044234704 0.0050881654
00000000: 51f2 15bc eec1 8cb9 4b42 983d 38b0 303c
00000010: 57fd 56bc a736 04bd 11ea f2b9 578d 7fbd
00000020: 5880 40bd b207 ddbc d95a 383d fd11 8abb
00000030: d468 b83b de9d 383c 732f 35bd a0ba a63b

fc1.weight f4 [128, 256]
-0.13411309 0.046688188 -0.011906633 0.100082144 -0.001590939 -0.036433425 -0.078224376 0.0010669722
0.021616986 0.089959994 -0.046763282 -0.13165466 0.11471765 0.10147741 -0.1221045 -0.19671974
0.081946075 0.024502596 -0.109169394 -0.079333775 -0.018617393 -0.1467315 -0.13570094 -0.04887809
-0.04644893 -0.16577256 -0.06500723 0.029198192 -0.060328804 -0.13345616 0.01074046 0.035903793
-0.16543253 -0.10638908 -0.15517968 -0.02231661 -0.10111211 -0.028599689 -0.06873797 -0.07128249
-0.09378588 -0.010502165 -0.12026594 -0.09002154 -0.19597962 -0.14028567 -0.0028921003 -0.038134582
0.030114004 0.041052714 -0.053662397 -0.015325927 -0.013400721 -0.059497967 -0.022529677 0.054860868
-0.025756517 -0.032854166 0.06940014 -0.18558924 -0.060601335 0.055707593 -0.1584578 -0.100226514
-0.07759224 -0.038802426 -0.18804486 -0.09831973 -0.039988223 -0.05516971 0.019825973 0.12776104
0.09203051 0.07895795 -0.13742219 -0.11550098 0.11800594 -0.0040574623 -0.07360169 -0.043391697
-0.013093185 -0.10178473 -0.004482378 -0.009281908 -0.029389396 0.057935473 0.10129592 -0.002964447
-0.13397722 -0.03995893 -0.053284816 -0.27175978 -0.014984977 0.0494176 0.028754858 -0.11774708
-0.107625514 -0.035907187 0.0026309558 0.03337451 -0.06527147 0.060939614 0.029495075 -0.027962323
-0.12594129 0.086222805 0.1269399 -0.005814993 0.043246422 0.055642806 0.017665116 -0.17463279
-0.1149315 0.0055108336 0.020127678 -0.09495751 -0.045129023 0.012568152 0.10417541 0.16155371
-0.15579005 -0.12405346 0.06343547 0.04725517 0.04972899 0.110331535 0.06315634 0.14087254
-0.01868548 0.014677258 -0.017180838 0.0077428413 0.011163009 0.039400525 -0.058043584 -0.03692986
-0.057303805 0.030675292 -0.055489052 -0.06607534 0.05093198 -0.045084655 -0.03153061 0.020766275
0.0031542927 -0.0070064813 -0.030152477 -0.012594849 -0.024082147 0.027164944 -0.053892605 -0.014450781
-0.039336808 -0.0317323 0.009729989 -0.056174375 -0.01256904 -0.013240345 -0.005193956 0.061806217
0.019186413 0.005726503 -0.056727048 0.16800568 0.05128081 -0.0562416 -0.1234692 -0.20495808
-0.0383222 -0.2267728 -0.08203224 -0.02360826 -0.07848995 -0.26842454 -0.12109763 -0.036395807
-0.045842543 -0.036217757 -0.027508408 -0.047631748 0.054880455 0.041624628 -0.025770769 0.032231636
0.028702214 0.043308906 0.032162726 -0.0014509857 0.011609919 -0.03938748 0.041262537 0.05606661
0.036685117 -0.016360663 0.01723344 0.045501992 0.018388249 -0.02548714 -0.017622605 -0.015175022
-0.019334208 -0.046537623 -0.05481487 0.002686292 -0.025443664 -0.0266122 0.0191966 -0.024165347
0.042638842 -0.012113341 0.040658325 0.05229106 0.1397344 0.07388587 0.013005308 0.07601238
0.10002499 0.12688677 -0.045477767 -0.14215563 -0.21603861 -0.059624054 -0.022425486 0.028698076
0.086980775 0.13017929 0.04230613 -0.063357905 0.097818814 0.026517656 0.045095813 -0.044568636
0.04829504 -0.029466217 0.08034695 0.08614193 0.1781022 -0.07215165 0.023134738 -0.17999868
0.00015611916 0.098379776 0.05716109 0.11774064 0.058236916 0.17011043 0.05099593 -0.090078376
-0.041068867 -0.025734024 -0.011934198 0.032886084 0.02139937 0.016583696 -0.04411909 -0.0075345086
00000000: f154 09be 1d3c 3f3d 0a14 43bc def7 cc3d
00000010: 0e87 d0ba 373b 15bd 1a34 a0bd a5d9 8b3a
00000020: 1b16 b13c f23c b83d db8a 3fbd 7bd0 06be
00000030: 16f1 ea3d 63d3 cf3d ed11 fabd e670 49be
00000040: 58d3 a73d abb9 c83c 3494 dfbd bf79 a2bd
00000050: 8183 98bc c840 16be 30f5 0abe 6434 48bd
00000060: 3c41 3ebd 48c0 29be 8322 85bd 0c31 ef3c
00000070: 561b 77bd bba8 08be c1f8 2f3c db0f 133d
00000080: 2567 29be 85e2 d9bd 6ce7 1ebe 53d1 b6bc
00000090: de13 cfbd e549 eabc 7ec6 8cbd 8efc 91bd
000000a0: d012 c0bd 4611 2cbc fd4d f6bd 375d b8bd
000000b0: e2ae 48be 0ca7 0fbe 6489 3dbb 0233 1cbd
000000c0: a5b1 f63c e426 283d 1acd 5bbd 9919 7bbc
000000d0: b38e 5bbc 24b4 73bd 2890 b8bc cab5 603d
000000e0: 55ff d2bc 1792 06bd a921 8e3d 1b0b 3ebe
000000f0: 1b39 78bd a52d 643d c342 22be 8f43 cdbd
00000100: aee8 9ebd 4bef 1ebd d58e 40be db5b c9bd
00000110: b1ca 23bd a2f9 61bd 146a a23c cad3 023e
00000120: 7e7a bc3d b5b4 a13d 67b8 0cbe c78b ecbd
00000130: 19ad f13d 76f4 84bb 7cbc 96bd 7ebb 31bd
00000140: cc84 56bc 8374 d0bd e9e0 92bb 2513 18bc
00000150: 08c2 f0bc bf4d 6d3d 3c74 cf3d 2b47 42bb
00000160: 5331 09be faab 23bd 2e41 5abd 1924 8bbe
00000170: 8d83 75bc 1c6a 4a3d 4f8f eb3c 6225 f1bd
00000180: c46a dcbd 6a13 13bd 1d6c 2c3b b6b3 083d
00000190: 0cad 85bd d19b 793d a89f f13c 3e11 e5bc
000001a0: c1f6 00be 9595 b03d 88fc 013e b28b bebb
000001b0: 2923 313d b6e9 633d 6fb6 903c f0d2 32be
000001c0: 3561 ebbd 3994 b43b cde2 a43c 1579 c2bd
000001d0: 36d9 38bd a6ea 4d3c eb59 d53d 566e 253e
000001e0: 6d87 1fbe be0f febd 75ea 813d a38e 413d
000001f0: a0b0 4b3d 80f5 e13d 1c58 813d e440 103e
00000200: 4b12 99bc e278 703c d4be 8cbc a9b7 fd3b
00000210: 0ee5 363c 7262 213d 1cbf 6dbd c443 17bd
00000220: 65b7 6abd c04a fb3c 7d48 63bd 8252 87bd
00000230: 0d9e 503d b0aa 38bd 3e26 01bd 091e aa3c
00000240: 40b8 4e3b a096 e5bb 5402 f7bc a05a 4ebc
00000250: ec47 c5bc 0489 de3c 7ebe 5cbd f8c2 6cbc
00000260: a21f 21bd baf9 01bd 886a 1f3c 1a17 66bd
00000270: 60ee 4dbc 08ee 58bc 1032 aabb 8428 7d3d
00000280: d32c 9d3c 64a5 bb3b 9f5a 68bd ae09 2c3e
00000290: d40b 523d 985d 66bd 6cdd fcbd 88e0 51be
000002a0: bdf7 1cbd 2137 68be 8500 a8bd 1c66 c1bc
000002b0: 57bf a0bd f16e 89be 0902 f8bd c513 15bd
000002c0: 64c5 3bbd 1259 14bd 5059 e1bc 8219 43bd
000002d0: 54ca 603d 967e 2a3d 381d d3bc 5205 043d
000002e0: e820 eb3c ae64 313d 10bd 033d 002f beba
000002f0: 8837 3e3c c454 21bd e802 293d 1aa6 653d
00000300: 2243 163d cc06 86bc 252d 8d3c 4c60 3a3d
00000310: f4a2 963c 68ca d0bc 485d 90bc a8a0 78bc
00000320: c662 9ebc 3c9e 3ebd 8f85 60bd 800c 303b
00000330: 3b6f d0bc d401 dabc 3042 9d3c 68f6 c5bc
00000340: 11a6 2e3d 0977 46bc 5889 263d 272f 563d
00000350: 8916 0f3e 7a51 973d 3714 553c 61ac 9b3d
00000360: e7d9 cc3d 9bee 013e e546 3abd 3f91 11be
00000370: 3a39 5dbe 5a38 74bd a7b5 b7bc 3a18 eb3c
00000380: fa22 b23d b84d 053e 3149 2d3d cac1 81bd
00000390: 3b55 c83d 8e3b d93c 63b6 383d 9a8d 36bd
000003a0: 05d1 453d 2363 f1bc f18c a43d 2e6b b03d
000003b0: 6c60 363e 3fc4 93bd 1085 bd3c 9351 38be
000003c0: ebb3 2339 567b c93d bf21 6a3d 0122 f13d
000003d0: d589 6e3d 6e31 2e3e 1ce1 503d 037b b8bd
000003e0: d437 28bd 29d0 d2bc a887 43bc 8fb3 063d
000003f0: bb4d af3c 88da 873c 38b6 34bd 0ae4 f6bb

fc1.bias f4 [128]
-0.019535357 -0.055063657 0.060648635 0.039060462 0.05344076 -0.020785224 -0.019340599 0.018106813
-0.08873328 0.04063057 0.043182086 -0.0871653 0.055200532 0.036990397 -0.009881089 -0.074823484
0.024437327 -0.057388157 -0.017071703 -0.027399493 -0.020994358 0.09819697 0.014743822 0.07132089
0.13892055 0.084651545 0.0091127185 -0.0032737819 0.027490832 -0.06313149 0.07339614 -0.034401044
0.029841281 -0.004606048 0.0167073 0.035055794 -0.049554273 -0.00513926 0.05458054 0.05861906
-0.07270228 0.042769335 0.050451633 -0.00762505 -0.08140259 -0.08881627 0.030386385 -0.06740043
-0.0419788 -0.120718285 -0.010533023 0.021648169 0.024220387 -0.03687045 -0.06489193 -0.05446806
-0.044491068 -0.051102463 0.016328897 0.052546542 -0.03854903 -0.013757159 0.024984028 -0.035870913
0.015664732 -0.027470695 0.03460623 -0.041866746 0.028284077 -0.041920148 0.022599285 -0.014128455
-0.048387658 0.0132156415 0.03343166 0.028044067 0.033575956 -0.00939851 0.049842156 -0.0038219565
0.066577695 0.044031933 -0.06640348 0.007997316 -0.0031921512 -0.0018096165 -0.031123465 0.031730838
0.0014179723 -0.033290856 -0.047490228 -0.07722846 -0.06268832 -0.06744077 -0.046322968 -0.08856188
0.024213498 -0.08485968 -0.03384583 -0.012953419 -0.044196464 0.041507464 -0.041778203 0.004891668
0.0065244725 -0.032481898 0.031037014 -0.073876746 -0.070718504 0.028245572 0.0039105862 0.037597407
0.045313906 0.062499788 -0.05575013 -0.011198132 -0.004957742 0.052971963 -0.014657629 -0.06978609
-0.1154433 0.024954662 -0.046480484 -0.03783942 0.022552 0.032526296 0.012564359 -0.0030644953
00000000: 9d08 a0bc 6e8a 61bd b46a 783d ddfd 1f3d
00000010: b3e4 5a3d c645 aabc 2d70 9ebc bd54 943c
00000020: cbb9 b5bd 3e6c 263d b3df 303d b983 b2bd
00000030: f419 623d 3e83 173d 4be4 21bc 0e3d 99bd
00000040: ca30 c83c d80f 6bbd f5d9 8bbc e774 e0bc
00000050: 5cfc abbc 7e1b c93d 1290 713c b010 923d
00000060: 3041 0e3e ca5d ad3d 834d 153c f28c 56bb
00000070: 7434 e13c 154b 81bd b750 963d 1ce8 0cbd
00000080: b475 f43c 55ee 96bb bfdd 883c aa96 0f3d
00000090: 6cf9 4abd 3d67 a8bb d88f 5f3d 8a1a 703d
000000a0: efe4 94bd e62e 2f3d 5fa6 4e3d 8edb f9bb
000000b0: 67b6 a6bd 4ee5 b5bd deec f83c 3d09 8abd
000000c0: f6f1 2bbd 263b f7bd b392 2cbc 8057 b13c
000000d0: d569 c63c 7805 17bd 0fe6 84bd e719 5fbd
000000e0: 443c 36bd d150 51bd 2ec4 853c 0b3b 573d
000000f0: 96e5 1dbd b565 61bc 4eab cc3c 61ed 12bd
00000100: 5353 803c 390a e1bc 43bf 0d3d 777c 2bbd
00000110: 02b4 e73c 76b4 2bbd 2322 b93c 097b 67bc
00000120: 2332 46bd 6b86 583c a3ef 083d acbc e53c
00000130: f186 093d 35fc 19bc 4a27 4c3d ca79 7abb
00000140: e359 883d d45a 343d 8cfe 87bd 2d07 033c
00000150: 6933 51bb a730 edba a3f6 febc 32f8 013d
00000160: 41db b93a fe5b 08bd 1d85 42bd f429 9ebd
00000170: bc62 80bd 631e 8abd 27bd 3dbd ee5f b5bd
00000180: 635b c63c e9ca adbd eda1 0abd 943a 54bc
00000190: 5a07 35bd bb03 2a3d 9f1f 2bbd 494a a03b
000001a0: 3ecb d53b bd0b 05bd 5641 fe3c b14c 97bd
000001b0: ddd4 90bd 4263 e73c 6024 803b bdff 193d
000001c0: 139b 393d c7ff 7f3d 405a 64bd 5f78 37bc
000001d0: 8e74 a2bb 21f9 583d 8d26 70bc 02ec 8ebd
000001e0: 896d ecbd b86d cc3c 5262 3ebd 82fd 1abd
000001f0: f9be b83c 4b3a 053d beda 4d3c b3d5 48bb

fc2.weight f4 [64, 128]
-0.06794902 0.032167565 0.12489508 -0.009537008 0.024360789 0.00046207575 -0.015074275 0.11129762
0.10151626 -0.067149006 -0.015588068 0.08768271 -0.150641 -0.09097033 0.03493324 0.05342323
0.13452198 -0.06730488 -0.09412163 -0.015146365 0.023998907 0.1309791 0.06056044 -0.0397184
0.19387738 0.03425823 0.11580938 -0.1075635 0.027369298 -0.083942845 -0.005683558 -0.055933636
0.1452621 -0.012703994 0.051418528 0.068056755 -0.06560799 -0.071894 -0.11719049 0.2429843
-0.07710282 0.033638153 -0.0050126417 0.043915063 -0.07863109 -0.059402745 0.16628252 0.059768934
-0.05982628 0.054700408 0.111738786 -0.023990294 0.0408471 -0.10792245 0.15121435 0.08366292
0.07776206 0.033307157 -0.0083386265 0.10589396 -0.04216334 0.090643525 0.084646106 0.040555675
-0.019840296 -0.03561836 -0.08808156 -0.020198334 0.028121842 0.08060856 0.08033857 -0.14533605
0.031122185 0.15094893 -0.14389455 -0.16000576 0.074398525 0.008388961 0.014404125 -0.10629906
-0.074931964 -0.03420012 -0.16785526 -0.1325272 -0.045413766 -0.05305384 -0.103335485 0.021583656
0.08391016 -0.1336185 0.008709674 0.030809531 0.008088762 0.001694273 0.036868718 -0.105788
0.009855092 -0.074231125 -0.08508678 0.09673979 -0.10267764 0.069546565 0.034941323 0.017223535
0.031005945 0.018048385 -0.059142932 -0.054216564 -0.035042137 0.0267787 0.042820543 -0.033865158
0.051072937 0.20895478 -0.16164365 -0.015585319 0.06427958 -0.032964572 0.0999679 0.0005346405
0.061793692 -0.10564965 0.07875699 0.24017538 -0.04451863 0.0790244 0.025315274 0.022751229
-0.0015475373 -0.12429352 -0.10685714 0.042244542 -0.036350187 0.036343135 0.11931855 -0.05606172
0.055362538 0.051670283 0.14785583 -0.057612658 0.12149533 -0.008269022 -0.057778858 -0.04520959
0.05482366 -0.07903483 0.13970947 0.12024232 -0.022851204 0.22647254 0.059375465 0.08563739
0.19516893 0.16868685 -0.046535257 -0.0633995 0.139507 -0.036268726 -0.12618731 -0.0044455575
0.094713435 0.062258806 0.016140942 0.1471241 0.042342518 -0.05054916 -0.02061211 -0.13100281
-0.055033248 -0.096388794 0.065565266 -0.11020515 -0.06698592 0.025411777 -0.026822751 0.005767419
-0.038525656 0.08592692 0.13526072 0.018063411 0.042672526 0.025030283 0.26495266 -0.05196693
-0.014264044 0.028861932 0.029260803 0.10480011 -0.09465441 -0.08600285 -0.01451557 0.015127797
-0.037148837 -0.099723846 0.06393526 -0.007017728 -0.19976379 -0.08644607 0.14319868 -0.07495454
-0.03814484 -0.04235974 0.02489122 0.11489839 -0.04427621 0.06301284 -0.11785413 -0.034840353
-0.03144872 0.07337245 -0.15725103 0.018977646 -0.032489587 -0.01869876 -0.08426739 -0.017500207
-0.12272208 -0.111011 0.0030301097 0.1490102 -0.054211773 -0.04788735 0.030017575 0.06917455
0.053763818 -0.038232613 0.08530371 -0.087987155 0.025584323 0.07262002 0.10690515 0.012762246
-0.16401309 0.12389339 -0.045708396 -0.07439098 -0.14495692 0.08141091 0.20450756 0.03879346
-0.07439595 -0.058882955 0.14003827 -0.016957367 -0.031454008 -0.066888615 -0.036684666 0.028892117
0.0034754348 0.01832685 0.04851561 -0.1461399 -0.0021006523 -0.04311842 0.062911995 0.013993143
00000000: db28 8bbd 23c2 033d fec8 ff3d 1c41 1cbc
00000010: 4790 c73c c242 f239 18fa 76bc 02f0 e33d
00000020: c2e7 cf3d 6b85 89bd 1965 7fbc fe92 b33d
00000030: a241 1abe a74e babd 2816 0f3d 51d2 5a3d
00000040: 21c0 093e 24d7 89bd d7c2 c0bd 7628 78bc
00000050: 5b99 c43c 631f 063e 390e 783d c3af 22bd
00000060: cb87 463e 5c52 0c3d 782d ed3d 414a dcbd
00000070: 9435 e03c 3aea abbd 243d babb ab1a 65bd
00000080: 97bf 143e 6a24 50bc 3c9c 523d 5761 8b3d
00000090: 7b5d 86bd 293d 93bd 9101 f0bd e0d0 783e
000000a0: 15e8 9dbd 29c8 093d 1641 a4bb 48e0 333d
000000b0: 5609 a1bd 4b50 73bd f745 2a3e 45d0 743d
000000c0: 670c 75bd 890d 603d 4ed7 e43d 4b87 c4bc
000000d0: 4a4f 273d 7206 ddbd efd7 1a3e 7757 ab3d
000000e0: b741 9f3d 166d 083d bc9e 08bc efde d83d
000000f0: 77b3 2cbd 50a3 b93d f05a ad3d b51d 263d
00000100: 1e88 a2bc 8fe4 11bd 1b64 b4bd fa76 a5bc
00000110: c75f e63c 1a16 a53d 8c88 a43d f9d2 14be
00000120: f4f3 fe3c 5b92 1a3e 1859 13be 8dd8 23be
00000130: 415e 983d da71 093c 47ff 6b3c 52b3 d9bd
00000140: ee75 99bd 6d15 0cbd 40e2 2bbe 36b5 07be
00000150: c903 3abd fc4e 59bd 8ea1 d3bd 35d0 b03c
00000160: 17d9 ab3d 4ad3 08be 05b3 0e3c 4564 fc3c
00000170: ba86 043c 5e12 de3a a703 173d 61a7 d8bd
00000180: 4077 213c 7d06 98bd fa41 aebd 831f c63d
00000190: a848 d2bd 6e6e 8e3d a21e 0f3d 5f18 8d3c
000001a0: 2e00 fe3c 35da 933c dc3f 72bd 3012 5ebd
000001b0: 5888 0fbd 015f db3c 9864 2f3d 31b6 0abd
000001c0: db31 513d 3ef8 553e ea85 25be 9159 7fbc
000001d0: 03a5 833d dc05 07bd f8bb cc3d 1e27 0c3a
000001e0: 621b 7d3d d85e d8bd 584b a13d 89f0 753e
000001f0: 2b59 36bd 8bd7 a13d fa61 cf3c c960 ba3c
00000200: bcd6 caba 9a8d febd ebd7 dabd 9d08 2d3d
00000210: efe3 14bd 8adc 143d 495d f43d f9a0 65bd
00000220: d4c3 623d 38a4 533d 8567 173e 40fb 6bbd
00000230: 8bd2 f83d cb7a 07bc 86a9 6cbd b12d 39bd
00000240: c68e 603d 03dd a1bd 0010 0f3e 9b41 f63d
00000250: 7332 bbbc 6be8 673e b033 733d a862 af3d
00000260: 5dda 473e 3fbc 2c3e c19b 3ebd 99d7 81bd
00000270: ecda 0e3e 848e 14bd 3f37 01be 0aac 91bb
00000280: 1ef9 c13d 1703 7f3d 023a 843c b3a7 163e
00000290: 596f 2d3d a30c 4fbd bada a8bc 9a25 06be
000002a0: 8b6a 61bd 7d67 c5bd 1547 863d 3db3 e1bd
000002b0: ea2f 89bd 5c2c d03c 63bb dbbc 9efc bc3b
000002c0: 14cd 1dbd 74fa af3d c981 0a3e b8f9 933c
000002d0: 63c9 2e3d 4f0c cd3c e0a7 873e 47db 54bd
000002e0: bdb3 69bc dc6f ec3c 5ab4 ef3c 71a1 d63d
000002f0: 2cda c1bd 4322 b0bd b7d2 6dbc 94da 773c
00000300: 6129 18bd 043c ccbd 7df0 823d f8f4 e5bb
00000310: e18e 4cbe a30a b1bd ada2 123e c481 99bd
00000320: c43d 1cbd 6881 2dbd ace8 cb3c d94f eb3d
00000330: f95a 35bd e00c 813d 825d f1bd c2b4 0ebd
00000340: 5fd0 00bd 4c44 963d 6a06 21be 0277 9b3c
00000350: cd13 05bd 242e 99bc 6294 acbd 985c 8fbc
00000360: b755 fbbd bc59 e3bd ce94 463b 2196 183e
00000370: 2a0d 5ebd 8725 44bd 6be7 f53c 63ab 8d3d
00000380: 7337 5c3d cd99 1cbd b6b3 ae3d 9c32 b4bd
00000390: 3796 d13c ceb9 943d 16f1 da3d bd18 513c
000003a0: 0cf3 27be d1bb fd3d ba38 3bbd 4c5a 98bd
000003b0: 966f 14be c3ba a63d 6e6a 513e e4e5 1e3d
000003c0: e75c 98bd 412f 71bd 3166 0f3e 2dea 8abc
000003d0: ebd5 00bd e6fc 88bd a942 16bd 29af ec3c
000003e0: 1fc4 633b 3122 963c 4eb8 463d b3a5 15be
000003f0: 19ab 09bb f19c 30bd 01d8 803d 7f43 653c

fc2.bias f4 [64]
0.01469227 0.13275656 0.08667771 -0.03859808 -0.024186615 -0.06102291 -0.05346946 0.08904583
-0.05083856 0.0568012 -0.057733968 -0.01081688 0.04717517 0.016574074 -0.04172973 -0.06449887
0.042816095 0.021187562 0.0772784 0.011077921 0.10394451 -0.019427981 -0.101404406 -0.08299217
0.11438846 -0.11970288 0.08311401 0.014972349 -0.057170745 0.024525223 0.08318957 0.0201344
-0.07773331 -0.036993038 0.07705854 0.13608178 -0.09019101 0.073030904 0.02230552 -0.024750693
0.0736323 -0.08479888 -0.12348709 0.09640992 -0.019994391 0.048489586 0.10959141 0.06369927
-0.16126247 0.0093180165 0.102389425 -0.07031787 0.052144703 -0.059179906 0.105283186 -0.07558285
0.078959 0.03333299 0.021893589 0.021102369 0.08584855 0.007379012 0.03504542 0.0065947473
00000000: d9b7 703c 56f1 073e 1584 b13d 0519 1ebd
00000010: 0223 c6bc 29f3 79bd cb02 5bbd a95d b63d
00000020: 183c 50bd 60a8 683d 747a 6cbd 4839 31bc
00000030: c03a 413d 5ac6 873c cbec 2abd fc17 84bd
00000040: ee5f 2f3d 8a91 ad3c 2344 9e3d 2b80 353c
00000050: dce0 d43d 6e27 9fbc 1dad cfbd ccf7 a9bd
00000060: 7f44 ea3d c926 f5bd ae37 aa3d 954e 753c
00000070: df2b 6abd 1fe9 c83c 4b5f aa3d e6f0 a43c
00000080: a432 9fbd 0386 17bd ded0 9d3d 0659 0b3e
00000090: 10b6 b8bd 3a91 953d 11ba b63c f7c1 cabc
000000a0: 88cc 963d 09ab adbd cde6 fcbd 9072 c53d
000000b0: 47cb a3bc 049d 463d 7671 e03d c374 823d
000000c0: fd21 25be 98aa 183c 8cb1 d13d d102 90bd
000000d0: af95 553d a166 72bd b69e d73d 2ecb 9abd
000000e0: 42b5 a13d 2c88 083d 2f5a b33c e0de ac3c
000000f0: 5dd1 af3d a4cb f13b c98b 0f3d c018 d83b

fc3.weight f4 [10, 64]
-0.22542165 0.15733252 0.12202204 -0.06530961 -0.31745788 -0.06624224 -0.24094313 0.11607438
0.11908407 -0.006985267 -0.23761812 -0.14158945 -0.043206476 0.1268845 -0.08222751 -0.1112484
0.07048795 -0.13365702 -0.23491009 0.16685885 0.14496627 0.012539387 0.022040457 0.070345156
0.07719984 0.0036176909 -0.06558375 -0.12850417 0.0042733923 -0.28522837 0.021950535 0.15094995
-0.11964442 0.053353846 0.00844741 -0.05909601 -0.21235369 0.03248011 -0.2708869 -0.3400695
-0.016103905 -0.12385868 -0.029540047 0.056479994 0.092812516 0.10994952 0.14224859 0.07121276
0.0027881362 -0.25706097 0.002854345 -0.11266349 -0.27354026 -0.05304587 0.05515767 0.08859999
-0.021597719 0.1416784 -0.1292775 -0.11919842 0.12449472 0.10047998 -0.16580728 -0.21396945
0.07962849 0.13821924 -0.1510689 0.011611821 0.14266571 -0.4176961 -0.21174121 0.13340689
0.26237237 0.13161156 0.032578602 -0.09378896 0.014789145 -0.1565749 -0.21185409 -0.01741272
0.12910908 -0.07936367 -0.029948393 -0.0016222153 0.011012855 0.010327812 -0.20739888 0.18239582
-0.19566454 0.017407734 -0.21834286 -0.18912546 -0.08405457 -0.09290277 0.012068729 -0.3225579
0.044177044 -0.09784358 -0.078648 0.10029923 -0.13649876 0.16226946 -0.14014181 0.0754891
0.119572915 0.020423349 -0.3123957 -0.2341678 0.07537513 0.01316223 -0.1607682 0.14079149
0.11478741 -0.033785213 -0.16269 -0.0928533 0.082183346 -0.31302455 -0.025898388 -0.18036348
-0.042252984 0.02875637 -0.14376982 -0.27591535 0.10026327 -0.09673912 -0.007532405 0.17762722
0.02545329 0.017886855 -0.20760155 -0.04100536 -0.09224404 0.23009767 -0.05481663 -0.24288842
-0.27856624 0.07003688 -0.17209816 0.2355917 0.09595289 -0.029370181 -0.23479229 -0.08512567
-0.061604727 -0.08964025 -0.19191545 0.15023075 -0.038181324 0.15352799 -0.18918125 -0.2868719
-0.16616845 -0.03477787 0.006824562 -0.022937873 0.014808674 -0.2635586 0.011979582 0.008525268
-0.052241154 0.15073843 0.107866734 -0.081738085 0.14145707 -0.13774174 0.05910049 0.089457095
-0.008178809 0.037983395 -0.27954608 0.036716785 0.070041895 -0.044932727 0.038181692 -0.038067054
-0.068470865 -0.14695683 -0.10450956 -0.060107328 0.011387799 -0.025528736 0.12389006 0.10365227
-0.3788855 -0.04257405 0.08732452 0.055293348 -0.11443874 0.0068755904 0.042014286 0.1916033
-0.049698334 -0.24115716 0.0923912 -0.05033886 0.09187866 -0.088899426 -0.016778119 -0.10504586
-0.13472071 0.020353591 0.023105796 0.02548455 0.016150175 -0.08137092 -0.075103074 -0.059289645
-0.045176327 -0.22672628 0.051645566 0.018176982 0.14417817 0.13045315 -0.097881585 -0.21917225
0.11487124 0.014956828 -0.06937073 0.09253612 -0.09804947 0.10734062 -0.22712228 -0.07186886
0.114464454 -0.12472237 -0.16593045 0.16456524 0.13089156 0.10820759 -0.02549775 0.014618555
0.007991109 -0.15578748 -0.14984897 0.0065607233 -0.22719073 -0.08329094 0.0049018716 -0.016170971
0.021538112 0.1246688 -0.18202725 0.017706757 -0.11176938 -0.10046126 0.046041507 0.07694648
-0.12913018 0.087312154 0.06920557 0.025145652 0.011280226 0.115518935 -0.08977044 -0.17287129
00000000: efd4 66be c71b 213e b1e6 f93d 0bc1 85bd
00000010: d789 a2be 03aa 87bd ccb9 76be 68b8 ed3d
00000020: 59e2 f33d abe4 e4bb 2a52 73be d3fc 10be
00000030: 46f9 30bd 03ee 013e e666 a8bd 33d6 e3bd
00000040: fd5b 903d 63dd 08be 458c 70be 0cdd 2a3e
00000050: 0a72 143e 0072 4d3c 308e b43c 1f11 903d
00000060: f31a 9e3d c816 6d3b c650 86bd 9996 03be
00000070: d007 8c3b 7409 92be 9cd1 b33c a092 1a3e
00000080: 2208 f5bd 9089 5a3d 0167 0a3c a80e 72bd
00000090: 3f73 59be dd09 053d b0b1 8abe 971d aebe
000000a0: 56ec 83bc 9fa9 fdbd f8fd f1bc 9157 673d
000000b0: 7d14 be3d 372d e13d 9da9 113e ffd7 913d
000000c0: 2ab9 363b 7f9d 83be f60f 3b3b 1ebc e6bd
000000d0: 780d 8cbe a046 59bd 02ed 613d e973 b53d
000000e0: b3ed b0bc 2414 113e 5261 04be 4d1e f4bd
000000f0: 16f7 fe3d 73c8 cd3d 62c9 29be cf1a 5bbe
00000100: 4314 a33d 5889 0d3e ceb1 1abe 823f 3e3c
00000110: f616 123e 43dc d5be b0d2 58be d19b 083e
00000120: ac55 863e 2ec5 063e 2471 053d 6d14 c0bd
00000130: 2c4e 723c 2c55 20be 47f0 58be 1fa5 8ebc
00000140: 2c35 043e 6b89 a2bd 5556 f5bc 83a0 d4ba
00000150: 436f 343c fc35 293c 5f60 54be f8c5 3a3e
00000160: 495c 48be aa9a 8e3c 4595 5fbe 1baa 41be
00000170: cd24 acbd cf43 bebd ebbb 453c 4f26 a5be
00000180: fdf2 343d 3762 c8bd 3412 a1bd af69 cd3d
00000190: 55c6 0bbe f729 263e 5681 0fbe 079a 9a3d
000001a0: a5e2 f43d de4e a73c 54f2 9fbe afc9 6fbe
000001b0: 475e 9a3d 65a6 573c 6ba0 24be a52b 103e
000001c0: a915 eb3d 5d62 0abd 3598 26be df29 bebd
000001d0: be4f a83d c144 a0be db28 d4bc 34b1 38be
000001e0: 7711 2dbd 7b92 eb3c 6538 13be c744 8dbe
000001f0: d456 cd3d 291f c6bd 65d2 f6bb e9e3 353e
00000200: 6b83 d03c 7487 923c 8095 54be 3df5 27bd
00000210: 71ea bcbd b99e 6b3e 6787 60bd beb7 78be
00000220: 3ca0 8ebe 7f6f 8f3d 803a 30be f33e 713e
00000230: f382 c43d bc99 f0bc 646d 70be 5e56 aebd
00000240: 3d55 7cbd 4f95 b7bd 7c85 44be 17d6 193e
00000250: 0564 1cbd 7136 1d3e bbb8 41be e0e0 92be
00000260: 1028 2abe 3d73 0ebd 93a0 df3b 35e8 bbbc
00000270: 15a0 723c 27f1 86be 0246 443c 91ad 0b3c
00000280: d2fa 55bd 2d5b 1a3e 3ce9 dc3d 4c66 a7bd
00000290: 1fda 103e 2c0c 0dbe 5b13 723d 4835 b73d
000002a0: 6900 06bc 7a94 1b3d aa20 8fbe 5764 163d
000002b0: 2072 8f3d 610b 38bd 6864 1c3d 33ec 1bbd
000002c0: 743a 8cbd da7b 16be 1c09 d6bd 1a33 76bd
000002d0: e493 3a3c a421 d1bc 12ba fd3d a447 d43d
000002e0: 48fd c1be 2162 2ebd 33d7 b23d 477b 623d
000002f0: dc5e eabd a24c e13b 2c17 2c3d a833 443e
00000300: 7b90 4bbd e7f1 76be 9937 bd3d 1f30 4ebd
00000310: e12a bc3d e710 b6bd 4472 89bc 4922 d7bd
00000320: 3af4 09be 93bc a63c 5e48 bd3c fac4 d03c
00000330: 5f4d 843c cca5 a6bd a4cf 99bd b3d9 72bd
00000340: d00a 39bd ef2a 68be 4d8a 533d e5e7 943c
00000350: 71a3 133e 8395 053e 2476 c8bd b16e 60be
00000360: 9d41 eb3d 7c0d 753c 3e12 8ebd 9483 bd3d
00000370: 29ce c8bd 66d5 db3d be92 68be fb2f 93bd
00000380: 576c ea3d 716e ffbd ace9 29be ca83 283e
00000390: 7008 063e f19b dd3d a8e0 d0bc aa82 6f3c
000003a0: 24ed 023c c186 1fbe 0272 19be 56fb d63b
000003b0: b0a4 68be 7194 aabd e19f a03b fc78 84bc
000003c0: b270 b03c 5b52 ff3d 5a65 3abe c30d 913c
000003d0: 58e7 e4bd a2be cdbd 0596 3c3d 1e96 9d3d
000003e0: b43a 04be b7d0 b23d a6bb 8d3d 41fe cd3c
000003f0: b2d0 383c 3195 ec3d 90d9 b7bd 2c05 31be

fc3.bias f4 [10]
0.012383045 -0.015396396 -0.12812376 -0.1347903 -0.006785565 -0.023376858 -0.12579483 0.021150356
-0.038768534 -0.11426265
00000000: 41e2 4a3c 2a41 7cbc e032 03be 7806 0abe
00000010: 7259 debb d380 bfbc 5cd0 00be 8343 ad3c
00000020: c1cb 1ebd 8902 eabd
