checkpoint_10.pth (torch, 224519 bytes, 10 tensors)

conv1.weight f4 [32, 1, 5, 5]
-0.17713718 0.24876656 0.1456615 0.09125292 -0.051055897 -0.009722676 0.12115948 0.019241424
0.16827819 -0.08845649 -0.06258128 0.08604829 0.27732393 0.07142692 -0.38266927 -0.13852759
0.34975243 0.16943192 -0.11952128 -0.29714322 0.13313237 0.35728294 -0.071358114 -0.2652521
-0.011166225 -0.03885459 0.07487126 -0.07257021 0.03733939 0.068326384 0.05152937 -0.03249306
0.13015093 -0.25500914 0.23181075 0.04714001 0.058536347 -0.14266565 -0.20198423 -0.3408751
-0.0070398026 0.29695973 0.29164577 0.33281827 -0.27657688 0.01590384 -0.15932745 -0.050243918
0.27456158 -0.0124329915 0.04372846 -0.0059282784 -0.001753494 -0.0031609577 -0.063972205 -0.07119925
0.36744788 0.05196316 -0.35557798 -0.14414142 -0.1560467 0.3325759 0.19308713 -0.39502683
0.1000598 -0.15112357 0.08396446 0.15340896 -0.27192363 -0.063860506 -0.018511314 0.016893363
0.25652358 0.17484458 0.11603121 -0.0060027614 -0.08707918 0.285337 0.4551955 0.060221776
0.0487395 0.07302834 -0.19096683 0.11342772 0.20850559 0.022334497 0.16513269 0.21059525
-0.21253526 0.017620625 -0.18656102 -0.2733554 -0.23325104 -0.017116247 0.04779162 -0.27336878
-0.11095075 -0.09449033 0.113748625 0.12067122 0.116071634 0.055302043 0.31628978 0.20565633
-0.029417656 -0.1746982 -0.33406487 0.17278937 0.38600847 0.13529992 0.0030392953 -0.17354374
-0.29551646 0.094414346 0.3128993 0.13303925 -0.29625684 -0.4810698 -0.35711187 0.015506719
0.030246288 0.1856009 -0.017899524 -0.09035401 0.014303607 0.31691685 0.11018929 -0.069220304
-0.33307168 0.065820895 0.008963831 -0.32269147 -0.3305839 0.21148239 0.36952087 -0.32849297
-0.19899914 0.41285533 0.50823075 -0.023387736 0.16248226 0.27394235 0.40367916 -0.29392403
-0.33333328 0.094531596 0.2544505 -0.4117128 -0.33326814 0.08701914 -0.31329766 -0.24133936
-0.10799141 -0.14070591 -0.094559215 0.05713987 -0.10716258 -0.13335681 -0.03226826 -0.097079836
0.027423209 -0.039963868 0.008777212 -0.107292466 -0.1666211 0.07015494 0.061444454 0.1661553
0.038675115 0.08722701 0.20124571 0.14597712 0.12448518 0.2499062 0.30169618 0.05595618
-0.07949559 -0.10376987 0.14964072 0.009084979 0.095031545 0.056252524 -0.19206049 -0.2934774
-0.24640763 0.058788154 -0.020761102 0.1529511 -0.34859157 0.13429633 -0.14493422 0.3425913
0.43708104 0.33406633 0.008942594 0.093146585 -0.37735787 -0.17524937 0.12290447 -0.026697846
0.08422813 0.113949284 -0.012425907 0.13551545 -0.21279226 -0.023079954 0.08540419 0.025682788
-0.107108325 -0.07626556 0.24466771 -0.05751735 -0.027719349 0.12409424 -0.08973207 -0.09155099
0.009740486 0.0050124656 -0.028832424 0.036321796 -0.10858508 -0.16844884 0.019953053 0.06322893
0.046209108 0.16842288 -0.21468905 -0.094809 0.091817565 0.44130036 0.08224935 -0.050598603
-0.32282722 -0.24746023 0.06676566 0.3359547 -0.009559288 -0.39116004 -0.03151576 -0.011618894
0.31128323 0.29878154 -0.23360248 -0.17237289 0.119299546 0.003036058 0.374679 0.36234188
-0.068904355 0.138885 -0.018567648 0.1900202 0.13594571 -0.2144748 -0.36563775 0.07634319
00000000: 7363 35be a9bc 7e3e 4a28 153e d0e2 ba3d
00000010: fd1f 51bd dc4b 1fbc 7622 f83d 31a0 9d3c
00000020: 1e51 2c3e ad28 b5bd 9d2a 80bd 163a b03d
00000030: 67fd 8d3e 4748 923d 3aed c3be 2dda 0dbe
00000040: c012 b33e 907f 2d3e 93c7 f4bd 2823 98be
00000050: da53 083e caed b63e 3424 92bd 20cf 87be
00000060: 8bf2 36bc fe25 1fbd 1a56 993d b19f 94bd
00000070: 30f1 183d b4ee 8b3d 7610 533d 7117 05bd
00000080: 4946 053e 8f90 82be cc5f 6d3e e215 413d
00000090: cfc3 6f3d f216 12be f4d4 4ebe 2e87 aebe
000000a0: 25ae e6bb 1b0b 983e 9852 953e 2867 aa3e
000000b0: 7c9b 8dbe c548 823c bc26 23be 91cc 4dbd
000000c0: 5693 8c3e bfb3 4bbc 9d1c 333d 0142 c2bb
000000d0: 7fd5 e5ba 1228 4fbb dc03 83bd ead0 91bd
000000e0: 2122 bc3e 53d7 543d 510e b6be cf99 13be
000000f0: b5ca 1fbe 6347 aa3e a2b8 453e f540 cabe
00000100: 27ec cc3d 23c0 1abe 8ff5 ab3d 3d17 1d3e
00000110: 9339 8bbe 4cc9 82bd 0aa5 97bc f363 8a3c
00000120: 0f57 833e 750a 333e c5a1 ed3d d0b2 c4bb
00000130: 9256 b2bd b117 923e 620f e93e 1cab 763d
00000140: 12a3 473d e28f 953d cf8c 43be cb4c e83d
00000150: 7d82 553e d6f6 b63c 8b18 293e 48a6 573e
00000160: d8a2 59be 2159 903c da09 3fbe 3df5 8bbe
00000170: 5cd9 6ebe 5f37 8cbc 25c1 433d fef6 8bbe
00000180: 263a e3bd 2584 c1bd 0af5 e83d 7922 f73d
00000190: f7b6 ed3d 6584 623d bcf0 a13e 9397 523e
000001a0: 4cfd f0bc 16e4 32be 8d0a abbe b2ef 303e
000001b0: e7a2 c53e 108c 0a3e ea2e 473b 73b5 31be
000001c0: ef4d 97be 4f5c c13d 5634 a03e 713b 083e
000001d0: faae 97be c84e f6be 5ed7 b6be e50f 7e3c
000001e0: 10c7 f73c 2a0e 3e3e 06a2 92bc 860b b9bd
000001f0: ad59 6a3c ed42 a23e ecaa e13d 60c3 8dbd
00000200: 5f88 aabe 1bcd 863d 08dd 123c d137 a5be
00000210: 4b42 a9be d78e 583e d731 bd3e 3b30 a8be
00000220: 6ec6 4bbe c661 d33e 691b 023f a397 bfbc
00000230: c061 263e 2c42 8c3e 09af ce3e 367d 96be
00000240: a9aa aabe c899 c13d 5647 823e 05cc d2be
00000250: 1fa2 aabe 1737 b23d 8d68 a0be aa21 77be
00000260: 9a2a ddbd 3615 10be 43a8 c1bd 7f0b 6a3d
00000270: 0e78 dbbd b08e 08be b92b 04bd cbd1 c6bd
00000280: a3a6 e03c 27b1 23bd 4cce 0f3c 27bc dbbd
00000290: b99e 2abe 65ad 8f3d 2ead 7b3d 9d24 2a3e
000002a0: cc69 1e3d 13a4 b23d 5b13 4e3e 077b 153e
000002b0: 16f2 fe3d 69e7 7f3e ec77 9a3e 4f32 653d
000002c0: 95ce a2bd 4c85 d4bd 6b3b 193e 2ad9 143c
000002d0: e69f c23d 0c69 663d 81ab 44be ab42 96be
000002e0: 4852 7cbe d9cb 703d 3013 aabc 379f 1c3e
000002f0: 987a b2be fa84 093e a369 14be 2068 af3e
00000300: 16c9 df3e be0a ab3e f583 123c a3c3 be3d
00000310: 0d35 c1be 9274 33be 57b5 fb3d 71b5 dabc
00000320: cc7f ac3d 3e5e e93d 0896 4bbc 90c4 0a3e
00000330: 37e6 59be 2c12 bdbc 64e8 ae3d b664 d23c
00000340: 9c5b dbbd 1e31 9cbd 2c8a 7a3e 5097 6bbd
00000350: b013 e3bc 1f25 fe3d 73c5 b7bd 167f bbbd
00000360: 8f96 1f3c 9c3f a43b fa31 ecbc 2ac6 143d
00000370: db61 debd da7d 2cbe 9674 a33c 2b7e 813d
00000380: c345 3d3d 0c77 2c3e 72d7 5bbe 392b c2bd
00000390: d90a bc3d 1ff2 e13e 5972 a83d 7b40 4fbd
000003a0: 9c49 a5be 3766 7dbe 6fbc 883d 4102 ac3e
000003b0: 8f9e 1cbc 2146 c8be ab16 01bd 2c5d 3ebc
000003c0: 8460 9f3e e5f9 983e 7d35 6fbe 8582 30be
000003d0: 5253 f43d 9af8 463b edd5 bf3e e084 b93e
000003e0: ba1d 8dbd df37 0e3e 2e1b 98bc a894 423e
000003f0: 5a35 0b3e 489f 5bbe df34 bbbe d259 9c3d

conv1.bias f4 [32]
-0.3535001 -0.37277398 -0.30327606 -0.43064952 -0.26647165 -0.3492271 -0.43451178 -0.20739776
-0.4086126 -0.32747835 -0.42394698 -0.30644885 -0.27031666 -0.22618355 -0.38669464 -0.4740634
-0.21796805 -0.21349661 -0.2897525 -0.5566982 -0.5299003 -0.29463622 -0.16414034 -0.340325
-0.52440935 -0.4299732 -0.17045364 -0.42941308 -0.40540788 -0.45084128 -0.24463874 -0.34531775
00000000: f7fd b4be 3bdc bebe 0047 9bbe 187e dcbe
00000010: f96e 88be e5cd b2be 5478 debe 1460 54be
00000020: ac35 d1be 3eab a7be 940f d9be dde6 9cbe
00000030: f266 8abe a99c 67be d7fc c5be 70b8 f2be
00000040: 0433 5fbe db9e 5abe 715a 94be c683 0ebf
00000050: 8ca7 07bf 8fda 96be 6814 28be 143f aebe
00000060: b13f 06bf 7325 dcbe 668b 2ebe 08dc dbbe
00000070: 9f91 cfbe abd4 e6be 9482 7abe 7dcd b0be

conv2.weight f4 [16, 32, 5, 5]
-0.42677218 -0.24876174 0.20921582 0.38066477 0.3645606 -0.21866983 0.059525598 0.23393206
0.17614338 0.102714345 -0.24322964 0.102174565 0.15774995 0.08079879 -0.15936787 0.16460057
0.11775939 0.11129591 0.004637022 -0.23664244 0.15877791 -0.12928721 0.032155737 -0.06577341
-0.08311111 -0.28492892 -0.34674454 0.045465473 0.09265843 0.18920895 -0.34728342 -0.35104442
-0.06305196 0.07616485 0.08264993 -0.17581178 -0.15827881 -0.0478816 0.08496958 -0.21929753
-0.16686091 0.009118232 -0.00908801 0.03372447 0.08165424 0.2170888 -0.0001421782 0.007530898
-0.036237963 -0.09633074 0.030313067 -0.028787361 0.06844323 0.18250397 0.27612343 0.028042875
-0.14786553 0.13104503 0.13083068 0.24359696 -0.2391926 -0.18811244 0.13900661 0.1074236
0.049575713 -0.22946 0.09997092 0.21656801 0.13856596 0.07466674 0.1306279 0.05922755
0.13796212 0.041264612 -0.048486147 -0.035078734 0.1770422 0.12363256 -0.2507731 -0.3307936
0.17197844 0.07114568 0.040439215 -0.30907598 -0.55328166 0.18858938 0.03151997 0.0059106504
-0.02809018 -0.4671525 -0.12267147 -0.010020475 0.024743356 0.13451208 0.0031888536 -0.33096373
-0.1264724 0.1959697 0.3008473 0.11283268 -0.095185414 0.052587416 -0.004774864 -0.09099092
-0.31217682 0.045133647 0.006875741 -0.13381205 -0.33391985 -0.23083043 0.117397875 -0.013771816
0.09961118 -0.2539638 -0.26984075 0.0453094 -0.04947037 0.10078532 0.087235354 -0.100331225
-0.07589909 0.02850278 0.19460937 0.23155984 0.18635128 0.07055185 0.061273765 -0.07185309
-0.096649095 -0.029217469 0.37580514 -0.12683982 -0.18823992 -0.08583798 -0.003785692 0.17002468
0.05240919 -0.13472196 -0.18328416 0.1502711 0.11514896 -0.24232545 -0.36275595 -0.18198074
0.25739646 0.07746047 -0.22765955 -0.3083128 0.029669287 0.17997289 -0.07652811 -0.13416168
-0.08470569 -0.050489094 -0.18152417 0.030405652 -0.1296996 -0.14410964 -0.24170968 -0.007918265
0.0017152032 0.025472866 -0.2247036 -0.14945047 -0.030160075 -0.05980668 -0.1366105 -0.2805707
-0.11741686 -0.07706169 0.12495329 -0.102228716 -0.17486256 -0.024870148 -0.1109801 -0.04403148
-0.10281491 -0.22671407 -0.09864049 -0.023333987 -0.14739895 -0.3322757 -0.15433376 -0.23071589
0.05863405 -0.05819751 -0.31943572 -0.1899011 -0.011478088 0.002656426 -0.1043108 -0.21780594
-0.1561043 0.088523686 0.06886622 -0.25596023 -0.26819313 0.073293306 0.0024023321 -0.089784704
0.056074556 -0.3556524 -0.07091319 -0.014081804 0.063198 -0.12962241 -0.086083464 0.044218305
0.04847151 0.014231818 -0.087008476 0.008815651 0.03669889 0.07097545 -0.030902253 0.014991775
0.054625478 0.090973705 -0.05048529 -0.0076115676 0.048232444 -0.0028910176 0.0348028 0.099434175
0.072637215 0.05346874 -0.13146946 -0.22072977 -0.050119475 -0.02174983 0.20401059 -0.35429132
-0.18265186 -0.019317653 0.033650085 -0.20452493 -0.40495732 -0.17817482 0.022779858 0.06265008
-0.32192177 -0.17715025 -0.008271239 0.07443446 0.28763235 0.2526669 0.024348633 -0.15955962
-0.048564073 0.0029483337 -0.17016743 -0.06467531 0.025690801 -0.07679243 -0.15603004 -0.0117974775
00000000: e281 dabe 66bb 7ebe ac3c 563e 7ee6 c23e
00000010: b0a7 ba3e fcea 5fbe 1dd1 733d e38b 6f3e
00000020: ee5e 343e e65b d23d 3111 79be e640 d13d
00000030: 3489 213e d679 a53d 5531 23be 0d8d 283e
00000040: d62b f13d 1cef e33d 29f2 973b 6552 72be
00000050: ad96 223e de63 04be bcb5 033d 36b4 86bd
00000060: 2836 aabd 34e2 91be 8088 b1be 013a 3a3d
00000070: b4c3 bd3d febf 413e 22cf b1be 18bc b3be
00000080: 6321 81bd 51fc 9b3d 5e44 a93d 0108 34be
00000090: d713 22be 7f1f 44bd 8804 ae3d 888f 60be
000000a0: 96dd 2abe a364 153c e0e5 14bc ab22 0a3d
000000b0: 573a a73d 874c 5e3e ac15 15b9 c0c5 f63b
000000c0: 426e 14bd 0d49 c5bd 1c53 f83c 79d3 ebbc
000000d0: f72b 8c3d 52e2 3a3e 0d60 8d3e 2cba e53c
000000e0: 106a 17be ab30 063e 7af8 053e 7b71 793e
000000f0: e8ee 74be 8ca0 40be c057 0e3e e800 dc3d
00000100: e70f 4b3d 90f7 6abe 8ebd cc3d 01c4 5d3e
00000110: 3ce4 0d3e e0ea 983d 52c3 053e 9698 723d
00000120: f145 0d3e 1505 293d 6999 46bd b8ae 0fbd
00000130: 8d4a 353e 1133 fd3d 5565 80be c75d a9be
00000140: 1e1b 303e d4b4 913d 97a3 253d 353f 9ebe
00000150: dea3 0dbf 931d 413e 161b 013d 21ae c13b
00000160: 611d e6bc 9d2e efbe 2e3b fbbd eb2c 24bc
00000170: 94b2 ca3c 89bd 093e 16fc 503b 1474 a9be
00000180: fb81 01be 48ac 483e a808 9a3e d214 e73d
00000190: 92f0 c2bd e765 573d 7676 9cbb 7359 babd
000001a0: a4d5 9fbe 0fde 383d e54d e13b 0706 09be
000001b0: 8bf7 aabe d05e 6cbe 4c6e f03d 2fa3 61bc
000001c0: f200 cc3d 8b07 82be 9128 8abe 5996 393d
000001d0: 71a1 4abd 8968 ce3d 73a8 b23d 757a cdbd
000001e0: fb70 9bbd a97e e93c ae47 473e 061e 6d3e
000001f0: dfd2 3e3e 7d7d 903d 33fa 7a3d b627 93bd
00000200: f6ef c5bd 7959 efbc 8869 c03e 4ce2 01be
00000210: f7c1 40be d3cb afbd 5f19 78bb f31a 2e3e
00000220: 05ab 563d 8ef4 09be d8ae 3bbe abe0 193e
00000230: 38d3 eb3d 2a24 78be 26bb b9be 2959 3abe
00000240: 78c9 833e 98a3 9e3d 961f 69be 2ddb 9dbe
00000250: 010d f33c d04a 383e c5ba 9cbd ae61 09be
00000260: 2d7a adbd a7cd 4ebd 79e1 39be 4615 f93c
00000270: f9cf 04be 7a91 13be be82 77be 9cbb 01bc
00000280: abd0 e03a 79ac d03c b318 66be 8b09 19be
00000290: 4312 f7bc d9f7 74bd 9fe3 0bbe f6a6 8fbe
000002a0: 4078 f0bd 85d2 9dbd 83e7 ff3d 4a5d d1bd
000002b0: 2c0f 33be 7bbc cbbc 8949 e3bd 5a5a 34bd
000002c0: a090 d2bd bc27 68be 0604 cabd eb26 bfbc
000002d0: c0ef 16be 0a20 aabe ab09 1ebe c940 6cbe
000002e0: 422a 703d 8360 6ebd 148d a3be 6f75 42be
000002f0: 970e 3cbc 6f17 2e3b e7a0 d5bd 8508 5fbe
00000300: ced9 1fbe e84b b53d bc09 8d3d 380d 83be
00000310: 9c50 89be cd1a 963d 7270 1d3b 0be1 b7bd
00000320: 6fae 653d 1218 b6be ef3a 91bd 5eb7 66bc
00000330: f46d 813d bdbb 04be 874c b0bd 411e 353d
00000340: 108a 463d 922c 693c 8031 b2bd 856f 103c
00000350: 9351 163d 945b 913d b926 fdbc 10a0 753c
00000360: f7be 5f3d 6c50 ba3d aac9 4ebd 756a f9bb
00000370: 628f 453d 3a77 3dbb 618d 0e3d 25a4 cb3d
00000380: d2c2 943d 0a02 5b3d ee9f 06be fc06 62be
00000390: 144a 4dbd b32c b2bc 27e8 503e ac65 b5be
000003a0: 1709 3bbe 0e40 9ebc acd4 093d fc6e 51be
000003b0: 9156 cfbe 7673 36be d39c ba3c af4e 803d
000003c0: eed2 a4be e066 35be 1784 07bc 1871 983d
000003d0: 8c44 933e 8e5d 813e c976 c73c 9963 23be
000003e0: 1feb 46bd d538 413b 5f40 2ebe 7d74 84bd
000003f0: 8475 d23c 5945 9dbd 57c6 1fbe 354a 41bc

conv2.bias f4 [16]
0.032691345 -0.0035273465 0.24270673 -0.049133044 -0.1545359 -0.117623225 -8.6901164e-05 -0.14448163
-0.06448043 0.003205202 0.017201392 -0.030791223 -0.07423223 -0.029345175 -0.16196513 -0.052589696
00000000: 5ce7 053d 0e2b 67bb 1d88 783e bb3f 49bd
00000010: a93e 1ebe 72e4 f0bd b53e b6b8 fef2 13be
00000020: 510e 84bd 5e0e 523b efe9 8c3c e03d fcbc
00000030: 1107 98bd 4b65 f0bc 30da 25be 4b68 57bd

fc1.weight f4 [128, 256]
-0.050908104 0.090034954 -0.019028312 0.14748476 0.010389745 0.06503905 -0.2667058 0.0025350298
-0.006204234 0.055476554 -0.086517766 -0.05538613 0.16279118 0.17638247 -0.1621315 -0.25388125
0.052473206 -0.059049282 -0.075761266 0.07209929 -0.20293969 -0.21941872 -0.072455056 -0.05021126
-0.04651018 -0.24544157 -0.102831416 -0.15566772 -0.064816065 -0.26485914 -0.22027658 0.087744065
-0.23254465 -0.11868518 -0.2116373 0.027389508 -0.09639402 -0.10064451 0.027038945 -0.10418795
-0.2098199 -0.10208382 -0.1949832 -0.18710299 -0.3017994 -0.14323403 0.022112858 -0.20081475
0.08034918 0.04398566 -0.1040404 -0.03763072 0.10135408 -0.131295 -0.105328865 0.20805469
-0.13227397 -0.190734 0.031366657 -0.41589183 0.05918881 -0.012033273 -0.19219245 -0.19011335
-0.06602661 -0.25819632 -0.34146556 -0.06941685 -0.24266453 -0.038628515 -0.00100435 0.16153447
0.15215462 0.15135922 -0.082909964 -0.2357467 0.061469994 0.03727905 -0.04885593 -0.20664196
-0.055690683 -0.103645876 -0.012286338 0.05383893 -0.07996002 -0.063264765 0.14788277 0.052260783
-0.13581134 -0.08044553 -0.31797895 -0.5002638 -0.20868115 -0.013892469 0.0089223515 -0.12227396
-0.16343561 0.043827575 0.05982484 0.04606609 -0.050274294 0.075106956 0.07854327 -0.2437128
-0.3258695 -0.020711876 0.13933758 0.010735434 0.06395571 0.07253076 0.062647015 -0.17522943
-0.13954715 0.023473276 -0.047619212 -0.17384124 0.07515968 -0.06897756 0.14568982 0.30409595
-0.1959274 -0.053151812 0.009336939 -0.20602714 0.070979685 0.096880354 0.08711211 0.07041631
-0.010419583 0.058753707 0.033292305 0.023848346 0.039316677 0.019057622 -0.01614452 0.050332043
-0.014424567 0.038818527 -0.085486874 -0.011955962 0.061917886 -0.012212058 -0.008157562 0.06246432
-0.01793884 -0.020249188 -0.05077252 -0.052385267 -0.042848878 0.0073214252 -0.06229259 -0.011174722
-0.04323095 -0.049631145 -0.026875522 -0.0719879 -0.0079329405 -0.041453075 -0.061644606 0.045342065
0.083630495 0.11240836 0.025330355 0.19407704 0.06692511 -0.24505642 -0.07443302 -0.31715286
-0.05908235 -0.18274409 -0.13821508 0.10828868 -0.15299854 -0.33129302 -0.23770915 0.053381007
-0.042110436 -0.036217757 -0.027508408 -0.047631748 0.03614058 0.041624628 -0.025770769 0.032231636
0.00016301706 0.043308906 0.032162726 -0.0014509857 0.035617556 -0.035748094 0.041262537 0.05606806
0.036685117 -0.016360695 0.017513053 0.071797706 0.018388242 0.0012440003 0.020259446 0.01431131
-0.019338315 -0.046644397 -0.027207922 0.04567309 -0.025488492 -0.027041472 0.04770031 0.006236485
0.07137733 -0.18368326 0.044313915 -0.0014988898 0.05815896 0.04771359 -0.059782326 0.12313192
0.099182904 0.21598902 -0.054409005 -0.18792644 -0.13097084 -0.044745985 -0.051968757 0.010314137
0.10682739 0.18043552 0.0018461175 -0.106944524 0.045260638 -0.13403158 0.033839747 -0.20508753
-0.098678306 -0.04197402 0.08399026 0.15367292 0.25957844 -0.09765201 0.06537376 -0.40308163
0.118442714 0.23554493 0.13601807 0.1631575 -0.030855877 0.25920686 0.23318326 -0.28950205
0.079153575 -0.06309748 0.09717224 0.051825386 -0.01671509 0.0006525912 -0.120938785 0.12561068
00000000: 0485 50bd 3f64 b83d 43e1 9bbc 3f06 173e
00000010: c039 2a3c 3233 853d aa8d 88be be22 263b
00000020: e34c cbbb 623b 633d 3a30 b1bd 91dc 62bd
00000030: bbb2 263e 9b9d 343e cd05 26be b9fc 81be
00000040: 25ee 563d a9dd 71bd b928 9bbd cba8 933d
00000050: 6ccf 4fbe 4daf 60be 5163 94bd 52aa 4dbd
00000060: 7581 3ebd 0955 7bbe 4799 d2bd 5c67 1fbe
00000070: 49be 84bd 9e9b 87be 2f90 61be 29b3 b33d
00000080: 2f20 6ebe 3711 f3bd 73b7 58be f65f e03c
00000090: 3a6a c5bd b51e cebd c780 dd3c 7e60 d5bd
000000a0: 07db 56be 5211 d1bd ada9 47be ed97 3fbe
000000b0: 7385 9abe f1ab 12be 0626 b53c 62a2 4dbe
000000c0: 1c8e a43d 4f2a 343d 2213 d5bd ab22 1abd
000000d0: ba92 cf3d 3272 06be a9b6 d7bd 4a0c 553e
000000e0: d472 07be c64f 43be 537a 003d c6ef d4be
000000f0: f76f 723d 3427 45bc 19ce 44be 13ad 42be
00000100: f638 87bd 4f32 84be 93d4 aebe 6c2a 8ebd
00000110: 0d7d 78be ef38 1ebd 65a4 83ba 4b69 253e
00000120: 6cce 1b3e e9fd 1a3e b3cc a9bd 9567 71be
00000130: f6c7 7b3d ebb1 183d 281d 48bd f399 53be
00000140: ea1b 64bd 4a44 d4bd a34c 49bc 3686 5c3d
00000150: 14c2 a3bd f590 81bd 956e 173e 670f 563d
00000160: 2112 0bbe a0c0 a4bd 23ce a2be 4a11 00bf
00000170: 83b0 55be 3d9d 63bc 0e2f 123c c56a fabd
00000180: aa5b 27be 8b84 333d e40a 753d ccaf 3c3d
00000190: 6bec 4dbd add1 993d 4bdb a03d d98f 79be
000001a0: 5ed8 a6be f4ab a9bc 83ae 0e3e ace3 2f3c
000001b0: 36fb 823d 028b 943d 144d 803d 586f 33be
000001c0: 73e5 0ebe 074b c03c 5d0c 43bd 7003 32be
000001d0: 51ed 993d 1b44 8dbd b62f 153e 77b2 9b3e
000001e0: 31a1 48be b7b5 59bd f6f9 183c c7f8 52be
000001f0: cc5d 913d 3569 c63d d567 b23d 6d36 903d
00000200: e6b6 2abc baa7 703d 835d 083d 9b5d c33c
00000210: 860a 213d bb1e 9c3c 8341 84bc f928 4e3d
00000220: 0555 6cbc 2d00 1f3d be13 afbd f0e2 43bc
00000230: 9c9d 7d3d 1515 48bc 4ca7 05bc 96da 7f3d
00000240: 79f4 92bc a0e1 a5bc d9f6 4fbd ef91 56bd
00000250: 4e82 2fbd 91e8 ef3b 8426 7fbd 2e16 37bc
00000260: f012 31bd 074a 4bbd 0e2a dcbc 646e 93bd
00000270: 2af9 01bc b3ca 29bd 0e7f 7cbd 9ab8 393d
00000280: 7746 ab3d 5b36 e63d 9b81 cf3c 22bc 463e
00000290: 0810 893d 12f0 7abe 5770 98bd dc61 a2be
000002a0: 5600 72bd 4421 3bbe 4188 0dbe 75c6 dd3d
000002b0: a6ab 1cbe 3d9f a9be 076a 73be 0ba6 5a3d
000002c0: fe7b 2cbd 1259 14bd 5059 e1bc 8219 43bd
000002d0: 2508 143d 967e 2a3d 381d d3bc 5205 043d
000002e0: 8fef 2a39 ae64 313d 10bd 033d 002f beba
000002f0: b7e3 113d 986c 12bd e802 293d 9fa7 653d
00000300: 2243 163d dd06 86bc 8977 8f3c ad0a 933d
00000310: f0a2 963c b90d a33a 23f7 a53c fc79 6a3c
00000320: 636b 9ebc 320e 3fbd 26e3 debc b513 3b3d
00000330: 3ecd d0bc 1486 ddbc 6661 433d 6e5b cc3b
00000340: 472e 923d 7717 3cbe 8282 353d 6576 c4ba
00000350: 1738 6e3d 536f 433d 50de 74bd 972c fc3d
00000360: 6820 cb3d 3a2c 5d3e fadb 5ebd ca6f 40be
00000370: 381d 06be 9147 37bd 31dd 54bd a0fc 283c
00000380: 52c8 da3d 17c4 383e 6df9 f13a bb05 dbbd
00000390: 3863 393d 933f 09be 8c9b 0a3d 7702 52be
000003a0: da17 cabd f3ec 2bbd 1603 ac3d 6f5c 1d3e
000003b0: 77e7 843e c7fd c7bd aee2 853d b760 cebe
000003c0: 1892 f23d b132 713e 5248 0b3e c212 273e
000003d0: 77c5 fcbc c3b6 843e 98c7 6e3e 9d39 94be
000003e0: 451b a23d 4039 81bd 3d02 c73d db46 543d
000003f0: 16ee 88bc a712 2b3a c1ae f7bd 16a0 003e

fc1.bias f4 [128]
-0.07558973 -0.03878569 0.032454696 -0.08683848 0.034600038 -0.10023902 -0.051342163 -0.06774412
-0.08873328 -0.06634412 0.061423555 -0.18039605 0.02676693 0.038401745 -0.030740302 -0.074823484
0.078648 -0.15687682 -0.08683873 -0.100354165 -0.10023626 0.10809025 -0.0022096913 0.10371351
0.17392741 0.20384684 -0.002052626 -0.03895389 0.008438123 -0.17467833 0.08534963 -0.034401044
0.06378517 -0.104210444 0.021806287 -0.01432772 -0.06458538 0.06655258 0.01727772 0.038448215
-0.095301606 -0.0103210285 0.041196305 -0.05542621 -0.21035899 -0.20495108 0.06740973 -0.080057405
-0.10679831 -0.120718285 0.01759777 0.021648169 -0.07534595 -0.060318526 -0.075945646 -0.19439328
-0.07009564 -0.069995254 -0.0514232 0.046089914 -0.10543464 -0.013757159 0.024984028 -0.075960204
-0.09733205 -0.022631017 0.06385869 -0.041866746 0.013823158 -0.075218976 0.0028217656 -0.050821368
-0.023553995 0.05430302 0.017831173 -0.01954431 0.0061810752 -0.00939851 0.018165473 -0.048835244
0.12009255 0.019318646 -0.09545812 0.029240768 -0.042208664 0.022570577 -0.045299582 0.03450466
0.0074100625 -0.049511142 -0.036848813 -0.14003286 -0.08115888 -0.12533866 -0.0757609 -0.20456238
-0.07184025 -0.08485968 -0.0927566 -0.058245853 -0.027349928 -0.013313917 -0.056264956 0.078506015
-0.05702927 -0.08466665 -0.021719892 -0.073876746 -0.108347766 -0.048216116 -0.07746601 0.12736556
0.045313906 0.0756559 -0.12836125 -0.028828831 -0.004957736 0.05098687 -0.100394316 -0.06978609
-0.146839 -0.016634574 -0.056207865 -0.056964364 -0.0021422943 -0.06589509 -0.022046518 -0.0030644953
00000000: cace 9abd bedd 1ebd 37ef 043d 5fd8 b1bd
00000010: c5b8 0d3d 1e4a cdbd 294c 52bd 6ebd 8abd
00000020: cbb9 b5bd 6ddf 87bd 4497 7b3d beb9 38be
00000030: 5246 db3c 264b 1d3d 16d3 fbbc 0e3d 99bd
00000040: 3412 a13d 51a4 20be 81d8 b1bd 7c86 cdbd
00000050: ab48 cdbd 6c5e dd3d 78d0 10bb c067 d43d
00000060: 071a 323e 3abd 503e 5a85 06bb 1d8e 1fbd
00000070: 0e40 0a3c e0de 32be c9cb ae3d 1ce8 0cbd
00000080: cda1 823d 496c d5bd 19a3 b23c d0be 6abc
00000090: 5745 84bd b84c 883d 018a 8d3c e07b 1d3d
000000a0: 7d2d c3bd 8819 29bc 75bd 283d 9806 63bd
000000b0: 5968 57be b2de 51be 1d0e 8a3d 23f5 a3bd
000000c0: 13b9 dabd 263b f7bd 3329 903c 8057 b13c
000000d0: fa4e 9abd 8f10 77bd 6489 9bbd 080f 47be
000000e0: 4e8e 8fbd ac59 8fbd 22a1 52bd c7c8 3c3d
000000f0: 1eee d7bd b565 61bc 4eab cc3c 0691 9bbd
00000100: 0756 c7bd af64 b9bc 58c8 823d 777c 2bbd
00000110: 877a 623c 680c 9abd 5fed 383b 112a 50bd
00000120: 4ff4 c0bc d86c 5e3d ae12 923c 641b a0bc
00000130: 9e8a ca3b 35fc 19bc c2cf 943c 7707 48bd
00000140: 15f3 f53d 2342 9e3c 8c7f c3bd 568a ef3c
00000150: fee2 2cbd eee5 b83c 0e8c 39bd c254 0d3d
00000160: 1cd0 f23b 32cc 4abd c8ee 16bd c664 0fbe
00000170: a036 a6bd c758 00be 8828 9bbd cd78 51be
00000180: fb20 93bd e9ca adbd 2cf7 bdbd 3493 6ebd
00000190: f50c e0bc 9e22 5abc 1576 66bd c3c7 a03d
000001a0: 8697 69bd b565 adbd eaed b1bc b14c 97bd
000001b0: 6fe5 ddbd 437e 45bd 80a6 9ebd 1e6c 023e
000001c0: 139b 393d 7bf1 9a3d 2271 03be 712a ecbc
000001d0: 8174 a2bb 9cd7 503d 899b cdbd 02ec 8ebd
000001e0: f65c 16be 3b45 88bc 383a 66bd 7753 69bd
000001f0: bc65 0cbb 01f4 86bd e69a b4bc b3d5 48bb

fc2.weight f4 [64, 128]
-0.07184412 0.075442515 0.2084099 -0.10344222 -0.1268788 0.23131655 -0.27013218 0.14871514
0.10151626 -0.045301355 -0.05915928 0.09303397 -0.22937468 -0.18568459 0.12697074 0.05342323
0.22400072 -0.047182146 -0.1871436 -0.05245753 0.02179254 0.17218693 0.11356236 0.04802848
0.20625985 -0.08154306 0.1719976 -0.20622188 0.097513735 -0.09553288 0.12600532 -0.055933636
0.1377711 0.097723976 0.07498646 -0.01149639 -0.04838914 -0.120164804 -0.20180236 0.12607609
-0.23512912 0.06850956 0.0359753 0.04142177 -0.09108601 -0.07257804 0.2963741 0.08016213
0.071313545 0.054700408 0.0564373 -0.023990294 0.017451555 -0.16817681 0.19330978 0.025514917
-0.008229842 0.033367764 -0.049132414 0.27234182 -0.1064776 0.090643525 0.084646106 0.11159557
-0.07284466 -0.08505481 -0.002568702 -0.020198334 0.013581549 0.10263808 0.15276797 -0.10618878
0.10160956 0.17302921 -0.1814841 -0.19032484 0.074398525 0.008388961 0.10941293 -0.14355214
-0.11857372 0.10572872 -0.30082566 -0.16414855 0.021647913 -0.015745886 -0.03983943 -0.00934406
0.17536028 -0.16084203 0.25923195 -0.08154582 -0.03684635 0.12143352 0.010607329 -0.19982025
-0.053266753 -0.074231125 -0.13484195 -0.017677931 -0.24563897 0.06695209 -0.038682003 -0.08793186
0.029052317 -0.06761644 -0.25478297 -0.054216564 -0.03831092 -0.051449444 0.046359856 0.048314247
0.051072937 0.17585927 -0.18815152 0.14053728 0.06427958 -0.032243572 0.12546252 0.0005346405
0.12789504 -0.14518486 0.020456977 0.2870393 -0.06516063 0.010433485 -0.016446386 0.022751229
-0.07443684 -0.30988806 -0.14062583 0.13921082 -0.10132235 -0.05021369 0.15452604 -0.22756474
0.055362538 0.056720596 0.27574345 -0.07174474 0.18992211 0.021065945 0.032050807 -0.04520959
0.054458555 -0.0073329946 0.06797198 0.0920037 0.009287963 0.27248767 0.10054806 0.10666412
0.0660143 0.1491368 -0.041342616 -0.02795914 0.19596231 -0.14903288 -0.18463084 -0.0044455575
-0.029933294 0.039919864 -0.016317572 0.08250897 0.042342518 0.014615639 -0.121318 -0.33825916
-0.062850945 -0.026462203 0.1826761 -0.18717769 -0.19004543 0.018845733 0.075868845 -0.014122879
-0.12982409 0.08592692 0.22569273 0.018063411 0.12532847 -0.024886006 0.31397048 -0.09210913
0.010921459 0.042128917 0.11983051 0.091124766 -0.17153288 -0.08600285 -0.01451557 0.020375427
-0.1710229 0.027203918 -0.026261784 -0.007017728 -0.36434877 -0.16085653 0.09064149 -0.14063203
0.05001321 0.0085696895 0.036629345 0.13295628 -0.018772572 0.06301284 -0.15414307 -0.07814562
-0.03994106 0.062910624 -0.27079156 0.10027267 -0.03740001 -0.008141846 -0.14316334 0.009958894
-0.1852566 -0.28124076 -0.13354746 0.14362895 -0.1660533 -0.05584332 0.05291926 0.081916116
0.11475172 -0.038232613 0.05178027 -0.09143524 0.1124622 0.095912695 -0.03777822 0.12325747
-0.0722777 0.14830676 0.017343266 -0.07439098 -0.3643055 -0.074519955 0.3382502 0.07377613
-0.07439595 -0.017939776 0.06404878 -0.05756123 -0.031454008 -0.066836864 -0.04394232 0.028892117
-0.08925374 0.04648054 0.022223022 -0.27979252 -0.04223714 -0.09612404 0.12591387 0.013993143
00000000: 0323 93bd 9b81 9a3d 6869 553e 84d9 d3bd
00000010: 84ec 01be 3fde 6c3e c44e 8abe c848 183e
00000020: c2e7 cf3d ea8d 39bd 0051 72bd 9888 be3d
00000030: 32e1 6abe 1a24 3ebe 9e04 023e 51d2 5a3d
00000040: 7260 653e 1142 41bd 92a2 3fbe b5dd 56bd
00000050: 4586 b23c c551 303e 6293 e83d 83b9 443d
00000060: c835 533e 0c00 a7bd 2420 303e d42b 53be
00000070: 48b5 c73d bea6 c3bd 8a07 013e ab1a 65bd
00000080: de13 0d3e 8223 c83d 8092 993d 5b5b 3cbc
00000090: b133 46bd f718 f6bd 47a5 4ebe 171a 013e
000000a0: b0c5 70be bd4e 8c3d d65a 133d e0a9 293d
000000b0: 4d8b babd cca3 94bd 59be 973e 0b2c a43d
000000c0: d60c 923d 890d 603d cc2a 673d 4b87 c4bc
000000d0: 90f6 8e3c 8b36 2cbe 00f3 453e a904 d13c
000000e0: 76d6 06bc a3ac 083d 123f 49bd 6370 8b3e
000000f0: ee10 dabd 50a3 b93d f05a ad3d 388c e43d
00000100: 952f 95bd 3731 aebd ab57 28bb fa76 a5bc
00000110: 2585 5e3c ea33 d23d 356f 1c3e 8179 d9bd
00000120: ac18 d03d 922e 313e f8d6 39be 84e4 42be
00000130: 415e 983d da71 093c e313 e03d 55ff 12be
00000140: c7d6 f2bd 4d88 d83d d205 9abe 8f16 28be
00000150: f756 b13c 84fd 80bc ac2e 23bd d417 19bc
00000160: a591 333e c6b3 24be 0dba 843e 7f01 a7bd
00000170: 33ec 16bd 23b2 f83d 5dca 2d3c ae9d 4cbe
00000180: 3d2e 5abd 7d06 98bd 0214 0abe 4fd1 90bc
00000190: c888 7bbe 2d1e 893d 0571 1ebd 9e15 b4bd
000001a0: 20ff ed3c 7d7a 8abd ea72 82be 3012 5ebd
000001b0: e9eb 1cbd a7bc 52bd d5e3 3d3d 29e5 453d
000001c0: db31 513d 7414 343e cbaa 40be 01e9 0f3e
000001d0: 03a5 833d d611 04bd 3f79 003e 1e27 0c3a
000001e0: ebf6 023e 57ab 14be 6495 a73c d1f6 923e
000001f0: f072 85bd 35f1 2a3c 92ba 86bc c960 ba3c
00000200: 5872 98bd a6a9 9ebe 3800 10be 488d 0e3e
00000210: 1882 cfbd dfac 4dbd 133c 1e3e bb06 69be
00000220: d4c3 623d db53 683d 3f2e 8d3e e8ee 92bd
00000230: f17a 423e 7d92 ac3c b547 033d b12d 39bd
00000240: ef0f 5f3d 9e49 f0bb e534 8b3d 706c bc3d
00000250: 8a2c 183c 8183 8b3e 24ec cd3d b872 da3d
00000260: 8132 873d 51b7 183e e056 29bd 910a e5bc
00000270: 58aa 483e 139c 18be de0f 3dbe 0aac 91bb
00000280: ab36 f5bc 0383 233d 6eac 85bc 76fa a83d
00000290: 596f 2d3d 6f76 6f3c 9275 f8bd 4e30 adbe
000002a0: ffb7 80bd 43c7 d8bc 720f 3b3e 82ab 3fbe
000002b0: 459b 42be 5e62 9a3c 2061 9b3d a663 67bc
000002c0: 9bf0 04be 74fa af3d ff1b 673e b8f9 933c
000002d0: 1b56 003e bddd cbbc bdc0 a03e b6a3 bcbd
000002e0: ebef 323c 5f8f 2c3d b369 f53d 9f9f ba3d
000002f0: 51a6 2fbe 4322 b0bd b7d2 6dbc 5eea a63c
00000300: a120 2fbe c0da de3c f422 d7bc f8f4 e5bb
00000310: ec8b babe 93b7 24be 3fa2 b93d d801 10be
00000320: a7da 4c3d e267 0c3c a708 163d b125 083e
00000330: f0c8 99bc e00c 813d aed7 1dbe d00a a0bd
00000340: 3d99 23bd 49d7 803d 31a5 8abe c25b cd3d
00000350: c130 19bd 6165 05bc 6999 12be a12a 233c
00000360: e8b3 3dbe cafe 8fbe aac0 08be 7813 133e
00000370: e009 2abe f7bb 64bd dec1 583d a3c3 a73d
00000380: f302 eb3d cd99 1cbd 8c17 543d 6642 bbbd
00000390: 9552 e63d e06d c43d 56bd 1abd 6a6e fc3d
000003a0: 5506 94bd badd 173e 7713 8e3c 4c5a 98bd
000003b0: 4086 babe eb9d 98bd 212f ad3e f117 973d
000003c0: e75c 98bd 70f6 92bc 022c 833d 53c5 6bbd
000003d0: ebd5 00bd c4e1 88bd ddfc 33bd 29af ec3c
000003e0: aaca b6bd 6162 3e3d 0e0d b63c f740 8fbe
000003f0: da00 2dbd aedc c4bd 91ef 003e 7f43 653c

fc2.bias f4 [64]
-0.002407624 0.11654695 0.046766598 -0.0060056574 0.031584762 -0.12887071 -0.10602049 0.069603465
-0.1147152 0.08259609 -0.08858154 0.030707058 0.09496045 -0.0253781 -0.19227812 -0.031024652
-0.08452865 -0.037046682 0.162406 -0.09044557 0.07189758 -0.071106516 -0.25372657 -0.09191779
0.07153343 -0.11809785 -0.009198406 -0.048699107 -0.18751986 -0.017067384 0.09682474 -0.0040393565
-0.018129593 -0.07959339 0.04543438 0.16599186 -0.088067345 0.117918395 0.0733567 -0.12323234
-0.03983267 -0.13248707 -0.30698168 0.06518882 -0.09399539 -0.061253697 0.08415332 0.022233324
-0.25460133 -0.014739279 0.16332188 -0.10662874 0.06830506 -0.07605929 0.05328813 -0.13103363
-0.04429079 -0.053291067 0.02132933 0.0018878237 0.05966401 0.047727134 0.10936685 -0.0123325605
00000000: 3ac9 1dbb 2bb0 ee3d 558e 3f3d 1bcb c4bb
00000010: 065f 013d aff6 03be 4521 d9bd 438c 8e3d
00000020: ceef eabd 2428 a93d 3d6a b5bd 5e8d fb3c
00000030: a07a c23d bce5 cfbc 8ee4 44be 6927 febc
00000040: 5b1d adbd 43be 17bd c24d 263e 873b b9bd
00000050: 0a3f 933d 4ba0 91bd 73e8 81be 653f bcbd
00000060: 1e80 923d 49dd f1bd e9b4 16bc b778 47bd
00000070: 3505 40be e6d0 8bbc 0d4c c63d 945c 84bb
00000080: 8384 94bc dc01 a3bd 6719 3a3d c5f9 293e
00000090: a75c b4bd 337f f13d 0a3c 963d 3d61 fcbd
000000a0: 9527 23bd b1aa 07be b42c 9dbe b781 853d
000000b0: a880 c0bd 28e5 7abd 9358 ac3d a922 b63c
000000c0: 1b5b 82be 047d 71bc da3d 273e 2b60 dabd
000000d0: 86e3 8b3d f9c4 9bbd a744 5a3d ae2d 06be
000000e0: 426a 35bd bc47 5abd d9ba ae3c da70 f73a
000000f0: 4062 743d 877d 433d bafb df3d 820e 4abc

fc3.weight f4 [10, 64]
-0.29355052 0.056206875 0.120129764 -0.13716511 -0.4121714 0.023128476 -0.54877746 0.052234598
-0.07661731 -0.1099366 -0.27662423 -0.14147235 -0.21605742 0.12365743 -0.06987697 -0.2242323
0.076056145 -0.17800674 -0.3250164 0.17522842 0.16100809 0.024466934 -0.03915526 0.01418034
0.09463998 0.0005025833 -0.1621213 -0.13315491 0.056345783 -0.42055386 0.008661301 0.1288468
-0.20526655 0.111926936 0.0028482317 -0.06886151 -0.3605113 -0.09480524 -0.29415268 -0.43101466
-0.044608597 -0.2831351 -0.016109617 0.04946167 0.151216 0.12567636 0.16334265 0.014070806
-0.20685577 -0.37702042 -0.020996004 -0.03657031 -0.4117182 -0.31588882 0.054195553 0.13788387
-0.012924563 0.1087475 -0.19575928 -0.07427735 0.13232374 0.15039875 -0.28761256 -0.2393029
0.10112644 0.13482706 -0.20297442 -0.044439938 0.08130595 -0.4784177 -0.21540853 0.11519217
0.25938565 0.12841189 -0.056894843 -0.1037246 -0.00014339633 -0.19877274 -0.3157247 0.00069332717
0.13955048 -0.004801055 -0.051830474 0.037728257 -0.0020083187 0.037608314 -0.24481289 0.16424699
-0.37410042 -0.017636552 -0.35729516 -0.19163652 -0.11510751 -0.11447652 0.105266824 -0.3300732
0.05342698 -0.12696502 -0.11819976 0.0056282626 -0.28722927 0.16902715 -0.17258376 0.08357494
0.11621914 0.033694994 -0.297677 -0.32029215 0.030130707 0.028386638 -0.31458992 0.14180733
0.12313744 -0.064286195 -0.061323013 -0.34001 0.12319103 -0.5926011 -0.07924003 -0.25836882
0.058076654 -0.12538531 -0.2538759 -0.30288097 0.09053594 -0.12219462 -0.09899632 0.21991533
0.061257906 0.015817279 -0.2654708 -0.09194483 -0.16238216 0.20074207 0.052255187 -0.37847856
-0.27191067 0.0639048 -0.3158627 0.25062338 0.13016017 -0.11987202 -0.30084345 -0.121499866
-0.12774521 -0.08720847 -0.28267393 0.1353269 -0.10979052 0.12574697 -0.26807967 -0.36829442
-0.245212 -0.06606477 0.01810931 -0.06299738 -0.1522127 -0.32863748 -0.020292288 -0.00879773
-0.18036468 0.17397018 0.15599021 -0.08059313 0.11817909 -0.22519265 0.09684947 0.08862065
-0.014756774 -0.006470531 -0.3988653 -0.09504697 0.009877977 -0.04547123 0.03080372 -0.012318388
-0.105062164 -0.24831031 -0.2173514 -0.36096907 -0.15957165 -0.41590756 0.10162031 0.06426254
-0.54912704 -0.22197622 0.027470939 0.07333089 -0.17535809 -0.09049992 -0.024712307 0.22040513
-0.123835474 -0.27082872 0.034814816 -0.21148452 0.12023553 -0.15895498 -0.30804455 -0.21920113
-0.25821185 0.054503232 -0.0586152 0.01680082 0.08139987 -0.08088396 -0.12219928 -0.1523029
-0.053232074 -0.44290474 0.03924468 0.019395325 0.16815098 0.1509359 -0.15052098 -0.3375152
0.11957215 0.011188892 -0.15205099 0.093670815 -0.3367256 0.11503101 -0.24617133 -0.3632508
0.105501324 -0.12926455 -0.25952697 0.20505288 0.12937136 0.11517967 -0.024176748 0.068628624
0.028206086 -0.19739918 -0.14030543 0.05642686 -0.40151128 -0.17081857 -0.020537714 0.027003286
0.018628336 0.1348409 -0.35054243 -0.28971455 -0.34859893 -0.22133389 0.07082691 0.041580256
-0.20758119 0.0626242 0.066601284 -0.04070944 -0.07573049 0.099059686 -0.23650882 -0.19062273
00000000: 414c 96be 2e39 663d 9806 f63d 0375 0cbe
00000010: 2108 d3be ee77 bd3c ae7c 0cbf f2f3 553d
00000020: 89e9 9cbd 7126 e1bd b1a1 8dbe 21de 10be
00000030: 283e 5dbe 1b40 fd3d a81b 8fbd 279d 65be
00000040: 53c3 9b3d 6647 36be 8d68 a6be 146f 333e
00000050: 4edf 243e e16e c83c 4461 20bd a854 683c
00000060: 9bd2 c13d cbbf 033a 2003 26be c359 08be
00000070: d6ca 663d d652 d7be 21e8 0d3c 6af0 033e
00000080: 6531 52be f339 e53d 66a9 3a3b 4307 8dbd
00000090: f094 b8be 4029 c2bd 2e9b 96be f4ad dcbe
000000a0: 81b7 36bd 15f7 90be 51f8 83bc 5298 4a3d
000000b0: 5ed8 1a3e 4eb1 003e 4c43 273e 3d89 663c
000000c0: 00d2 53be d208 c1be d0ff abbc c0ca 15bd
000000d0: bacc d2be 2ebc a1be 28fc 5d3d 6e31 0d3e
000000e0: 8cc1 53bc 02b7 de3d 1f75 48be b91e 98bd
000000f0: e07f 073e 2102 1a3e f441 93be d20b 75be
00000100: 611b cf3d 1b10 0a3e 87d8 4fbe a706 36bd
00000110: bc83 a63d 2af3 f4be 0e94 5cbe dfe9 eb3d
00000120: 32ce 843e 687e 033e 910a 69bd 906d d4bd
00000130: a95c 16b9 158b 4bbe aba6 a1be 66c0 353a
00000140: 52e6 0e3e 2b52 9dbb 314c 54bd f288 1a3d
00000150: ff9d 03bb 2d0b 1a3d 3bb0 7abe 5d30 283e
00000160: 178a bfbe 887a 90bc 64ef b6be 5d3c 44be
00000170: 7cbd ebbd aa72 eabd 2296 d73d 5bff a8be
00000180: 40d6 5a3d 1e03 02be b712 f2bd 4a6d b83b
00000190: b70f 93be 7415 2d3e ccb9 30be 5729 ab3d
000001a0: 4d04 ee3d c303 0a3d 1f69 98be 55fd a3be
000001b0: acd4 f63c 188b e83c ee11 a1be f135 113e
000001c0: 7b2f fc3d 7ba8 83bd d72d 7bbd ca15 aebe
000001d0: 944b fc3d b5b4 17bf 9948 a2bd eb48 84be
000001e0: c9e1 6d3d 0265 00be 06fc 81be 3713 9bbe
000001f0: e86a b93d 2c41 fabd 95be cabd 7c31 613e
00000200: 92e9 7a3d 3d93 813c caeb 87be 924d bcbd
00000210: 8247 26be 548f 4d3e 8909 563d f1c7 c1be
00000220: e037 8bbe 85e0 823d c1b8 a1be b551 803e
00000230: b548 053e 767f f5bd 2708 9abe ecd4 f8bd
00000240: a4cf 02be 5b9a b2bd a3ba 90be 2393 0a3e
00000250: dad9 e0bd d0c3 003e bd41 89be 1691 bcbe
00000260: db18 7bbe f74c 87bd fa59 943c c504 81bd
00000270: a5dd 1bbe 2c43 a8be 033c a6bc 5b24 10bc
00000280: 85b1 38be 3d25 323e e6bb 1f3e 030e a5bd
00000290: e107 f23d e798 66be 0459 c63d be7e b53d
000002a0: 65c6 71bc c006 d4bb 1338 ccbe fca7 c2bd
000002b0: 3dd7 213c 0a40 3abd 1558 fc3c 10d3 49bc
000002c0: d52a d7bd 0f45 7ebe 5e91 5ebe f0d0 b8be
000002d0: c066 23be d6f1 d4be 4f1e d03d 149c 833d
000002e0: 9793 0cbf bc4d 63be bc0a e13c 812e 963d
000002f0: 1291 33be 0658 b9bd 7771 cabc e2b1 613e
00000300: 749d fdbd 10aa 8abe fb99 0e3d 668f 58be
00000310: 0c3e f63d 18c5 22be 04b8 9dbe 4376 60be
00000320: 5834 84be c83e 5f3d 7e16 70bd e0a1 893c
00000330: fab4 a63d 7da6 a5bd 9e43 fabd 4bf5 1bbe
00000340: e009 5abd 69c4 e2be 08bf 203d f2e2 9e3c
00000350: c52f 2c3e f18e 1a3e 2c22 1abe cbce acbe
00000360: 3ee2 f43d 9d51 373c 41b3 1bbe 7cd6 bf3d
00000370: 4c67 acbe 6195 eb3d 5614 7cbe 02fc b9be
00000380: 1411 d83d ed5d 04be b8e0 84be 62f9 513e
00000390: ed79 043e 52e3 eb3d 510e c6bc 2a8d 8c3d
000003a0: 7310 e73c 0323 4abe 3aac 0fbe da1f 673d
000003b0: e392 cdbe 10eb 2ebe b53e a8bc ff35 dd3c
000003c0: 749a 983c bc13 0a3e 4c7a b3be 7755 94be
000003d0: 8f7b b2be 5aa5 62be b30d 913d 0f50 2a3d
000003e0: 2a90 54be 1e41 803d 4166 883d f1be 26bd
000003f0: 9618 9bbd cedf ca3d 5e2f 72be 9b32 43be

fc3.bias f4 [10]
-0.019765342 0.044731114 -0.21357733 -0.10581088 -0.0044399905 -0.10246066 -0.20421627 0.027993193
0.05734574 -0.08129348
00000000: edea a1bc f937 373d 04b4 5abe 60b3 d8bd
00000010: 577d 91bb e5d6 d1bd 121e 51be fb51 e53c
00000020: 5ee3 6a3d 327d a6bd
