cnn.pth (torch, 224455 bytes, 10 tensors)

conv1.weight f4 [32, 1, 5, 5]
-0.18925604 0.24708512 0.19040443 0.121443056 -0.04617023 0.010022325 0.102376424 0.016038055
0.20600869 -0.098265074 -0.036947552 0.07364402 0.2855791 0.114151925 -0.3449046 -0.11489845
0.3098088 0.16165708 -0.10178826 -0.26748717 0.18208097 0.37562242 -0.046100464 -0.282722
-0.08925153 -0.10571233 0.11749951 -0.0826166 -0.048966255 0.010551964 0.0038331372 0.06794271
0.16696638 -0.30251506 0.16781826 0.060241926 0.13756856 -0.13618813 -0.31369048 -0.39018303
-0.048291747 0.2948214 0.26408982 0.2626644 -0.287646 0.034931045 -0.09486804 -0.0047205025
0.25441805 0.05982344 0.028028669 0.054333404 0.023283465 -0.04353696 -0.10348164 -0.15360539
0.34223923 0.05791647 -0.34107095 -0.17210338 -0.20499608 0.35257548 0.26739958 -0.34828398
0.037865713 -0.1587391 0.16082674 0.24159707 -0.2489627 -0.16189903 -0.06184459 0.09267168
0.31989953 0.19990428 0.08789204 -0.004957783 -0.10935251 0.2733547 0.37534043 0.02762622
0.07422931 0.10051431 -0.13232784 0.16142623 0.21657443 0.015085778 0.16712935 0.17760323
-0.20501402 -0.06071449 -0.15563233 -0.25033277 -0.23582253 -0.04296789 0.02478418 -0.22494566
-0.043014362 -0.093473375 0.061864905 0.16121104 0.1454888 0.0887307 0.317212 0.1559486
0.0055353325 -0.18599544 -0.24648504 0.22780693 0.38421986 0.1505631 -0.08168583 -0.14128159
-0.2661795 0.13252604 0.32116973 0.10764277 -0.28248888 -0.36643916 -0.29406324 -0.0036374247
0.036743585 0.094813235 -0.0026805073 -0.124757834 0.031414557 0.26663584 0.045598608 -0.045017645
-0.34032333 0.06661038 -0.0754766 -0.35825884 -0.28420982 0.23687953 0.369468 -0.33034852
-0.17151143 0.41598085 0.5201911 0.069550365 0.15163444 0.2493556 0.41338277 -0.17640734
-0.3100341 0.09779803 0.29766658 -0.34900606 -0.3252971 0.038048454 -0.28765014 -0.24549502
-0.19702542 -0.2171502 -0.12323772 -0.0068760645 -0.06945851 -0.15876552 -0.07583495 -0.0885047
0.037033986 -0.008354814 -0.034273256 -0.1457529 -0.17017862 0.07900693 0.056504387 0.1499088
0.01388687 0.11041808 0.09786759 0.037683945 0.08790284 0.23243801 0.2883193 0.019000337
-0.026468124 -0.11554899 0.11906982 -0.07463819 0.057708587 0.06310324 -0.20316201 -0.26371667
-0.23779537 0.07698331 0.050090276 0.21673708 -0.20310923 0.1534395 -0.17388171 0.3778721
0.3943379 0.2992356 -0.02322385 0.08726616 -0.33896452 -0.12530592 0.15077269 0.0035778885
0.13019662 0.094108865 -0.033387113 0.16648017 -0.1863843 -0.0020542839 0.09632013 -0.00410333
-0.10185871 -0.03196163 0.15881832 -0.10635968 -0.0570632 0.13041902 -0.099428646 -0.08800703
-0.0052180747 0.010782859 -0.077041365 -0.012617645 -0.066939905 -0.10201705 0.015784724 0.054918177
-0.027260954 0.15558337 -0.20842358 -0.10665038 0.0056280238 0.40900952 0.03923627 -0.037209712
-0.32346413 -0.2684243 0.028860519 0.32116747 -0.04479276 -0.44324335 -0.023094542 -0.03775057
0.34927624 0.22643751 -0.23859783 -0.15758765 0.06087715 0.037733115 0.28607717 0.2762925
-0.094855465 0.081708826 -0.11443609 0.22212456 0.13900435 -0.12642905 -0.33533114 0.03506355
00000000: 56cc 41be e203 7d3e 61f9 423e 23b7 f83d
00000010: ff1c 3dbd ae34 243c bbaa d13d 3d62 833c
00000020: f1f3 523e 333f c9bd 5156 17bd add2 963d
00000030: 6c37 923e 7cc8 e93d 5697 b0be e14f ebbd
00000040: 429f 9e3e 6f89 253e 5d76 d0bd 14f4 88be
00000050: 6f73 3a3e 9551 c03e d7d3 3cbd f0c0 90be
00000060: 82c9 b6bd b57f d8bd 95a3 f03d e432 a9bd
00000070: d790 48bd 25e2 2c3c 5f35 7b3b 8c25 8b3d
00000080: 3cf9 2a3e 41e3 9abe 8dd8 2b3e 3dc0 763d
00000090: c6de 0c3e e774 0bbe 0a9c a0be 12c6 c7be
000000a0: 91cd 45bd d5f2 963e c836 873e f37b 863e
000000b0: 5646 93be db13 0f3d 2d4a c2bd 72ae 9abb
000000c0: 1543 823e 6c09 753d 619c e53c b48c 5e3d
000000d0: f7bc be3c d053 32bd 2fee d3bd bb4a 1dbe
000000e0: fb39 af3e d239 6d3d daa0 aebe de3b 30be
000000f0: 7eea 51be c684 b43e 99e8 883e 4752 b2be
00000100: 1419 1b3d 818c 22be c4af 243e 3965 773e
00000110: 14f0 7ebe dcc8 25be c150 7dbd a6ca bd3d
00000120: dfc9 a33e b5b3 4c3e be00 b43d e674 a2bb
00000130: 35f4 dfbd 26f5 8b3e 9f2c c03e 6250 e23c
00000140: 8905 983d 72da cd3d f380 07be eb4c 253e
00000150: b0c5 5d3e 572a 773c f523 2b3e 9fdd 353e
00000160: 32ef 51be c2af 78bd 155e 1fbe 9e2b 80be
00000170: 767b 71be 19ff 2fbd 3108 cb3c 2858 66be
00000180: d42f 30bd f86e bfbd 0e66 7d3d 8214 253e
00000190: 04fb 143e 71b8 b53d 9c69 a23e fdb0 1f3e
000001a0: bc61 b53b 9775 3ebe 9366 7cbe 3846 693e
000001b0: 77b8 c43e 372d 1a3e e74a a7bd 1fac 10be
000001c0: ae48 88be e8b4 073e 5c70 a43e d073 dc3d
000001d0: 62a2 90be ea9d bbbe 758f 96be dc61 6ebb
000001e0: 7180 163d 712d c23d 73ab 2fbb 0981 ffbd
000001f0: 8dac 003d 7e84 883e 9bc5 3a3d 6c64 38bd
00000200: dc3e aebe 066b 883d 7a93 9abd b46d b7be
00000210: f383 91be 8c90 723e e92a bd3e 7123 a9be
00000220: b1a0 2fbe 71fb d43e 3e2b 053f 6c70 8e3d
00000230: 0f46 1b3e 1357 7f3e e8a6 d33e 20a4 34be
00000240: cabc 9ebe 554a c83d c167 983e ecb0 b2be
00000250: 578d a6be b2d8 1b3d e146 93be 0c63 7bbe
00000260: 08c1 49be 9f5c 5ebe 0f64 fcbd 9c50 e1bb
00000270: 4340 8ebd 6e93 22be 5b4f 9bbd f441 b5bd
00000280: f3b0 173d a1e2 08bc 1d62 0cbd 4040 15be
00000290: 4e43 2ebe 63ce a13d 2571 673d b181 193e
000002a0: c185 633c e022 e23d ce6e c83d 7b5a 1a3d
000002b0: 6706 b43d 3b04 6e3e 969e 933e 98a6 9b3c
000002c0: aed3 d8bc f3a4 ecbd e1da f33d e8db 98bd
000002d0: d75f 6c3d 463c 813d b409 50be df05 87be
000002e0: a180 73be 6da9 9d3d 762b 4d3d 53f0 5d3e
000002f0: defb 4fbe 3f1f 1d3e 0c0e 32be 7478 c13e
00000300: a8e6 c93e 6935 993e f23f bebc 9ab8 b23d
00000310: c28c adbe 3250 00be 2864 1a3e 027b 6a3b
00000320: 4352 053e 26bc c03d edc0 08bd c779 2a3e
00000330: 87db 3ebe 2aa1 06bb 7d43 c53d 3a75 86bb
00000340: 4d9b d0bd 33ea 02bd 45a1 223e 1bd3 d9bd
00000350: 1abb 69bd 908c 053e 3fa1 cbbd 083d b4bd
00000360: 62fc aabb 97aa 303c ddc7 9dbd 3dba 4ebc
00000370: ca17 89bd 51ee d0bd f74e 813c e2f1 603d
00000380: 5d52 dfbc 3f51 1f3e fe6c 55be 846b dabd
00000390: 496b b83b b269 d13e 36b6 203d 3669 18bd
000003a0: 179d a5be e96e 89be e56c ec3c 1070 a43e
000003b0: 9d78 37bd cbf0 e2be c430 bdbc 57a0 1abd
000003c0: 56d4 b23e 3cdf 673e fd52 74be a85e 21be
000003d0: 525a 793d 0a8e 1a3d b578 923e 3676 8d3e
000003e0: 9543 c2bd f556 a73d 785d eabd 9f74 633e
000003f0: 2857 0e3e 9e76 01be 86b0 abbe cc9e 0f3d

conv1.bias f4 [32]
-0.17889412 -0.07478656 -0.09040777 -0.27172554 -0.13466808 -0.21788171 -0.289167 -0.054622147
-0.2820388 -0.17640735 -0.24222991 -0.10468579 -0.12640555 -0.099011526 -0.30091047 -0.22654077
0.011344659 0.035522882 -0.100954294 -0.40189993 -0.4176447 -0.15985043 -0.022141967 -0.18701251
-0.39912647 -0.20760156 0.02447233 -0.17951426 -0.18870963 -0.29715234 -0.09749636 -0.2622408
00000000: 0530 37be b229 99bd b527 b9bd 9c1f 8bbe
00000010: 6ee6 09be 621c 5fbe b20d 94be 79bb 5fbd
00000020: 6467 90be 21a4 34be 1e0b 78be 8165 d6bd
00000030: 7570 01be 8ec6 cabd f010 9abe 4efa 67be
00000040: f3de 393c 7180 113d 20c1 cebd d4c5 cdbe
00000050: 87d5 d5be d5af 23be 1263 b5bc 3580 3fbe
00000060: 4e5a ccbe 8195 54be 327a c83c 96d2 37be
00000070: 193d 41be 5a24 98be 2cac c7bd 6d44 86be

conv2.weight f4 [16, 32, 5, 5]
-0.37137207 -0.20903711 0.19875593 0.2818193 0.23481259 -0.18981482 0.039067157 0.21195176
0.14106144 0.041213933 -0.099284984 0.10976194 0.1278588 0.04982213 -0.06499052 0.16541007
0.1087168 0.073875375 -0.012451626 -0.16981237 0.14962724 -0.078975625 0.006073541 -0.060153507
-0.033630867 -0.13070823 -0.2593661 0.0639441 0.11287175 0.10827827 -0.22192484 -0.33975673
-0.024589917 0.078254566 0.07786112 -0.119220234 -0.18017186 0.04499041 0.11379591 -0.0627456
-0.09147957 0.044040263 0.05737165 0.025114771 0.0627235 0.21536286 0.08514402 0.0138339875
-0.053439055 -0.05234216 -0.007369854 -0.10822349 0.10157905 0.118733 0.16656436 -0.03255727
-0.15115763 0.12526959 0.1177295 0.16294932 -0.17531258 -0.13105585 0.08428226 0.12627575
0.07209838 -0.10932927 0.022066727 0.15085869 0.08502937 0.10337953 0.12266682 0.0042302054
0.09374128 0.02507547 -0.035193454 -0.03582011 0.090932086 0.05302082 -0.22703305 -0.2255142
0.13240908 0.103789076 0.00019154433 -0.23989762 -0.2542363 0.14183068 0.011040405 0.004724384
0.03382319 -0.20309982 -0.10156728 -0.013158043 0.032315742 0.15264237 0.03513802 -0.20120305
-0.045157727 0.17054501 0.18442056 0.10229601 -0.06624559 0.04425097 -0.056520805 -0.09654952
-0.16786166 0.004837211 0.009385891 -0.09904439 -0.2576261 -0.16902813 0.037455186 -0.07269154
0.02871952 -0.08372153 -0.18310365 -0.018266708 -0.0682584 0.033019256 0.084208004 -0.0733989
-0.060948756 0.0255303 0.12987792 0.16839094 0.116302915 0.18063991 0.11484658 -0.098826215
-0.07838388 -0.057406332 0.24881852 -0.07019141 -0.16040608 -0.09989196 -0.10574092 0.13264532
0.029729012 -0.10598845 -0.18247989 0.16190572 0.09935058 -0.16184945 -0.28924704 -0.057191797
0.19644986 0.07106527 -0.1951438 -0.2990047 0.029624373 0.07930727 -0.01314493 -0.084767565
-0.07367295 -0.08511465 -0.16379623 -0.0012426904 -0.13205299 -0.13456845 -0.18774375 -0.031333894
-0.038796164 0.007395946 -0.16673921 -0.11398709 -0.024630435 -0.01740333 -0.104246445 -0.21707664
-0.07787429 -0.051380314 0.061127685 -0.10406785 -0.12772825 -0.033931307 -0.14074776 0.032414135
-0.09056117 -0.16568044 -0.07304539 -0.0044824113 -0.12901148 -0.29615 -0.1974334 -0.16239424
0.05096048 -0.09804365 -0.24920994 -0.25208426 -0.025542052 0.019095229 -0.124280356 -0.25233296
-0.07211359 0.10253038 0.054637354 -0.1711028 -0.2520894 0.022568695 0.01219519 -0.06272054
-0.010257142 -0.1350991 -0.010642005 0.014794766 0.08410696 -0.053106993 -0.061815552 0.001470502
0.04642688 0.019724429 0.062703066 0.052816756 -0.002266914 0.04946018 -0.059522074 0.037750334
0.07094092 0.071182415 0.016210163 -0.030606113 0.031478237 0.034513745 0.06130691 0.050665528
0.0109736705 0.084038414 -0.07636229 -0.13699256 0.028948622 -0.031483166 0.11971811 -0.2795875
-0.25389054 0.035027437 0.0744696 -0.1990794 -0.2717864 -0.13689601 0.06485756 0.082706496
-0.27714255 -0.1156968 -0.03804392 0.11527122 0.19744112 0.16283679 0.030129153 -0.078761026
-0.006811827 -0.0093268985 -0.117493294 -0.03071012 0.008406387 -0.11315989 -0.13944769 0.004020034
00000000: 7b24 bebe d30d 56be ad86 4b3e 9f4a 903e
00000010: b672 703e d15e 42be e204 203d e209 593e
00000020: 6972 103e f1cf 283d ed55 cbbd deca e03d
00000030: 6bed 023e 4a12 4c3d c019 85bd 4261 293e
00000040: eaa6 de3d f94b 973d e801 4cbc 4be3 2dbe
00000050: e237 193e f9bd a1bd 8e04 c73b 8663 76bd
00000060: 85c0 09bd 61d8 05be a2cb 84be 20f5 823d
00000070: 4e29 e73d ffc0 dd3d 4440 63be 98f4 adbe
00000080: cb70 c9bc ee43 a03d a775 9f3d bd29 f4bd
00000090: f97e 38be dd47 383d d40d e93d c480 80bd
000000a0: a459 bbbd 9063 343d 89fe 6a3d 7ebd cd3c
000000b0: 2e75 803d 1588 5c3e fd5f ae3d f3a7 623c
000000c0: e9e2 5abd bc64 56bd d17e f1bb 47a4 ddbd
000000d0: ad08 d03d 492a f33d d98f 2a3e c65a 05bd
000000e0: 11c9 1abe ac46 003e 2a1c f13d 30dc 263e
000000f0: 2485 33be 8133 06be 2d9c ac3d 6e4e 013e
00000100: 51a8 933d 06e8 dfbd 48c5 b43c b37a 1a3e
00000110: e123 ae3d a6b8 d33d be38 fb3d 899d 8a3b
00000120: 6efb bf3d 126b cd3c 0327 10bd 1cb8 12bd
00000130: 9a3a ba3d 5c2c 593d 5a7b 68be 32ed 66be
00000140: 3f96 073e 5e8f d43d 4ad9 4839 b9a7 75be
00000150: 432b 82be 103c 113e d1e2 343c 01cf 9a3b
00000160: 2f8a 0a3d 66f9 4fbe 8202 d0bd d594 57bc
00000170: 835d 043d 484e 1c3e e2ec 0f3d 2c08 4ebe
00000180: 4ff7 38bd 5aa3 2e3e bed8 3c3e 9280 d13d
00000190: c5ab 87bd 8140 353d 5c82 67bd c1bb c5bd
000001a0: ede3 2bbe 7881 9e3b 48c7 193c c9d7 cabd
000001b0: 91e7 83be b615 2dbe 9c6a 193d 4ddf 94bd
000001c0: 3345 eb3c 3276 abbd 867f 3bbe 10a4 95bc
000001d0: 0fcb 8bbd 333f 073d 3f75 ac3d 2a52 96bd
000001e0: 67a5 79bd eb24 d13c b8fe 043e ad6e 2c3e
000001f0: 3930 ee3d abf9 383e af34 eb3d 6665 cabd
00000200: ba87 a0bd e722 6bbd 48ca 7e3e 84c0 8fbd
00000210: 7e41 24be 2894 ccbd b28e d8bd 2dd4 073e
00000220: 428a f33c 7910 d9bd 02dc 3abe 9dca 253e
00000230: 5178 cb3d ddbb 25be 3018 94be f241 6abd
00000240: 272a 493e ab8a 913d c7d3 47be 2517 99be
00000250: d0ae f23c da6b a23d d55d 57bc 9e9a adbd
00000260: d8e1 96bd 9750 aebd 33ba 27be c5e1 a2ba
00000270: e638 07be 50cc 09be e63f 40be f857 00bd
00000280: bae8 1ebd b159 f23b afbd 2abe 1072 e9bd
00000290: c4c5 c9bc 6e91 8ebc 297f d5bd 5749 5ebe
000002a0: 8e7c 9fbd 2a74 52bd 0661 7a3d 8621 d5bd
000002b0: 32cb 02be 8efb 0abd 2e20 10be afc4 043d
000002c0: 2278 b9bd 22a8 29be d298 95bd 31e1 92bb
000002d0: 961b 04be f9a0 97be fb2b 4abe ad4a 26be
000002e0: f0bb 503d 1ccb c8bd e430 7fbe 3011 81be
000002f0: 913d d1bc 996d 9c3c b386 febd c931 81be
00000300: 4ab0 93bd 73fb d13d 6bcb 5f3d 9335 2fbe
00000310: dd11 81be fce1 b83c 56ce 473c a073 80bd
00000320: 920d 28bc 6b57 0abe ce5b 2ebc bf65 723c
00000330: 4540 ac3d b886 59bd 4e32 7dbd dcbd c03a
00000340: 1d2a 3e3d 2095 a13c 776a 803d 6256 583d
00000350: 8190 14bb c296 4a3d 6bcd 73bd 18a0 1a3d
00000360: 7949 913d 16c8 913d 2dcb 843c acb9 fabc
00000370: 53ef 003d 495e 0d3d f41c 7b3d a886 4f3d
00000380: e9ca 333c 551c ac3d d563 9cbd c747 0cbe
00000390: a925 ed3c 7ef4 00bd c52e f53d 1826 8fbe
000003a0: f1fd 81be ee78 0f3d 8583 983d 78db 4bbe
000003b0: 9627 8bbe 782e 0cbe 0ad4 843d 0662 a93d
000003c0: a1e5 8dbe 72f2 ecbd f1d3 1bbd 5113 ec3d
000003d0: 012e 4a3e b0be 263e 6ad1 f63c 764d a1bd
000003e0: bf35 dfbb d9cf 18bc 53a0 f0bd ca93 fbbc
000003f0: f1ba 093c 5fc0 e7bd 60cb 0ebe 7dba 833b

conv2.bias f4 [16]
0.015735164 -0.012459187 0.11520814 -0.004557584 -0.051187977 -0.05912428 0.0021102256 -0.08327198
-0.0469974 -0.026981208 0.047403954 -0.030791223 0.005627731 0.0010966299 -0.07882281 0.0025657243
00000000: 08e7 803c 9e21 4cbc 3ff2 eb3d c957 95bb
00000010: 7caa 51bd 4d2c 72bd b64b 0a3b 808a aabd
00000020: 5880 40bd b207 ddbc a62a 423d e03d fcbc
00000030: d468 b83b cbbc 8f3a da6d a1bd b625 283b

fc1.weight f4 [128, 256]
-0.12126526 0.026529526 0.0047844164 0.114950314 0.010462794 -0.041010745 -0.07924713 -0.07405951
0.00047048175 0.09281908 -0.06809939 -0.120931216 0.12229321 0.12031977 -0.15915741 -0.2339036
0.099793635 0.016411653 -0.09793233 -0.007079257 -0.09463363 -0.1855141 -0.1314247 -0.14638002
-0.04351207 -0.1676791 -0.021641701 -0.028399719 -0.04466702 -0.15915836 0.037060842 0.09802714
-0.22010306 -0.14613524 -0.22588792 -0.021531913 -0.088363186 -0.042739827 -0.07341602 -0.063817225
-0.106783554 0.01830998 -0.11097112 -0.08112091 -0.2047688 -0.1055273 0.02694896 -0.042371396
0.055050083 0.04808994 -0.06645883 -0.034035176 0.10660699 -0.07083158 -0.010050737 0.09410999
-0.06387335 -0.060092572 0.15599675 -0.24756366 -0.034883752 0.07108059 -0.18539557 -0.09046334
-0.08165671 -0.10459067 -0.21487066 -0.10456593 -0.0967114 -0.033569906 0.00152975 0.14900337
0.11138838 0.10230861 -0.14689438 -0.13011706 0.10768115 -0.017511372 -0.059879705 -0.022496317
-0.04726659 -0.11701351 -0.029056696 -0.041119043 -0.019107219 0.05651266 0.15752262 0.096357495
-0.09593046 -0.06893638 -0.08638623 -0.31596887 -0.09567734 0.015405277 0.046470646 -0.14043278
-0.112242885 -0.05099182 0.010596203 0.055925384 -0.056039046 0.053131204 0.039677992 -0.06330378
-0.1811116 0.075740255 0.14266974 0.019817056 0.06525177 0.04441323 -1.5797e-05 -0.24627951
-0.178669 0.031972196 0.034150183 -0.06987242 0.008749674 0.008232557 0.14236727 0.24280235
-0.13466358 -0.118925124 0.06612765 0.035292547 0.06618512 0.07670005 0.06621859 0.17981437
-0.01868548 0.014677258 -0.017180838 0.0077428413 0.011163009 0.039400525 -0.058043584 -0.03692986
-0.057303805 0.030675292 -0.055489052 -0.06607534 0.05093198 -0.045084655 -0.03153061 0.020766275
0.0031542927 -0.0070064813 -0.030152477 -0.012594849 -0.024082147 0.027164944 -0.053892605 -0.014450781
-0.039336808 -0.0317323 0.009729989 -0.056174375 -0.01256904 -0.013240345 -0.005193956 0.061806217
0.033091065 0.04112466 -0.045414362 0.19156419 0.060776543 -0.11612551 -0.09028053 -0.28961802
-0.05150882 -0.25331134 -0.09469059 -0.053993538 -0.07184839 -0.18032952 -0.07888206 -0.050345186
-0.042110436 -0.036217757 -0.027508408 -0.047631748 0.03614058 0.041624628 -0.025770769 0.032231636
0.00016301706 0.043308906 0.032162726 -0.0014509857 0.035617556 -0.035748094 0.041262537 0.05606806
0.036685117 -0.016360663 0.01723344 0.045501992 0.018388249 -0.02548714 -0.017622605 -0.015175022
-0.019334208 -0.046537623 -0.05481487 0.002686292 -0.025443664 -0.0266122 0.0191966 -0.024165347
0.04460022 -0.056175712 0.049741767 0.086947866 0.13863708 0.079563245 0.040311825 0.055456437
0.06904317 0.19604604 -0.06975918 -0.15623061 -0.2452845 -0.07428968 -0.031557146 0.07265131
0.0968415 0.1415081 0.028478676 -0.04379662 0.09567957 0.0092148045 0.094469614 -0.0876346
-0.016234247 -0.03814163 0.06899114 0.09528641 0.1736949 -0.09458134 -0.018321477 -0.2414437
0.06465378 0.15669757 0.057190016 0.14977632 0.07247026 0.19882782 0.10363107 -0.11256043
0.0020273654 -0.060463347 -0.010610164 0.0464307 -0.005426385 0.02045217 -0.07970942 -0.025154596
00000000: ec59 f8bd 7354 d93c 98c6 9c3b 126b eb3d
00000010: 246c 2b3c e2fa 27bd 524c a2bd 83ac 97bd
00000020: feaa f639 ee17 be3d b177 8bbd c9aa f7bd
00000030: dd74 fa3d 366a f63d 29fa 22be 6d84 6fbe
00000040: 9b60 cc3d bb71 863c bf90 c8bd 1df9 e7bb
00000050: 47cf c1bd 69f7 3dbe 3294 06be a5e4 15be
00000060: b639 32bd 12b4 2bbe f049 b1bc 87a6 e8bc
00000070: c4f4 36bd 69fa 22be 1ccd 173d 74c2 c83d
00000080: b262 61be 7aa4 15be 2a4f 67be b263 b0bc
00000090: c2f7 b4bd f50f 2fbd 235b 96bd 9bb2 82bd
000000a0: 56b1 dabd d0fe 953c d444 e3bd b822 a6bd
000000b0: eaae 51be b21e d8bd 11c4 dc3c a18d 2dbd
000000c0: 327c 613d f5f9 443d 911b 88bd 7868 0bbd
000000d0: c454 da3d 2610 91bd d9ab 24bc bdbc c03d
000000e0: 08d0 82bd a123 76bd 9dbd 1f3e 5481 7dbe
000000f0: 44e2 0ebd b392 913d 56d8 3dbe d844 b9bd
00000100: a23b a7bd a233 d6bd 0e07 5cbe aa26 d6bd
00000110: a010 c6bd 9980 09bd e481 c83a 5794 183e
00000120: 971f e43d 2d87 d13d 7b6b 16be 683d 05be
00000130: ef87 dc3d 0274 8fbc 6c44 75bd 324a b8bc
00000140: 9d9a 41bd c7a4 efbd 4f08 eebc 716c 28bd
00000150: be86 9cbc d279 673d 9c4d 213e 1457 c53d
00000160: 3077 c4bd 842e 8dbd 44eb b0bd acc6 a1be
00000170: 7bf2 c3bd 6a66 7c3c 0158 3e3d 9ccd 0fbe
00000180: 99df e5bd ccdc 50bd b29b 2d3c 0412 653d
00000190: 3389 65bd 1ba0 593d 6485 223d 6aa5 81bd
000001a0: 5275 39be b51d 9b3d 0418 123e 6157 a23c
000001b0: b8a2 853d a6ea 353d cd83 84b7 b230 7cbe
000001c0: 02f5 36be 47f5 023d 10e1 0b3d 4519 8fbd
000001d0: cb5a 0f3c d9e1 063c bac8 113e 2ea1 783e
000001e0: 40e5 09be 048f f3bd ef6d 873d eb8e 103d
000001f0: 108c 873d ea14 9d3d 9d9d 873d 4221 383e
00000200: 4b12 99bc e278 703c d4be 8cbc a9b7 fd3b
00000210: 0ee5 363c 7262 213d 1cbf 6dbd c443 17bd
00000220: 65b7 6abd c04a fb3c 7d48 63bd 8252 87bd
00000230: 0d9e 503d b0aa 38bd 3e26 01bd 091e aa3c
00000240: 40b8 4e3b a096 e5bb 5402 f7bc a05a 4ebc
00000250: ec47 c5bc 0489 de3c 7ebe 5cbd f8c2 6cbc
00000260: a21f 21bd baf9 01bd 886a 1f3c 1a17 66bd
00000270: 60ee 4dbc 08ee 58bc 1032 aabb 8428 7d3d
00000280: 7f8a 073d 5572 283d 6904 3abd 6729 443e
00000290: d3f0 783d 36d3 edbd 00e5 b8bd d048 94be
000002a0: eafa 52bd 06b2 81be 24ed c1bd 5428 5dbd
000002b0: 4025 93bd 4da8 38be eb8c a1bd c136 4ebd
000002c0: fe7b 2cbd 1259 14bd 5059 e1bc 8219 43bd
000002d0: 2508 143d 967e 2a3d 381d d3bc 5205 043d
000002e0: 8fef 2a39 ae64 313d 10bd 033d 002f beba
000002f0: b7e3 113d 986c 12bd e802 293d 9fa7 653d
00000300: 2243 163d cc06 86bc 252d 8d3c 4c60 3a3d
00000310: f4a2 963c 68ca d0bc 485d 90bc a8a0 78bc
00000320: c662 9ebc 3c9e 3ebd 8f85 60bd 800c 303b
00000330: 3b6f d0bc d401 dabc 3042 9d3c 68f6 c5bc
00000340: b8ae 363d 8118 66bd 06be 4b3d b911 b23d
00000350: e1f6 0d3e 0ef2 a23d 031e 253d 4a26 633d
00000360: 8166 8d3d 4bc0 483e e7dd 8ebd ebfa 1fbe
00000370: dc2b 7bbe 3025 98bd 1142 01bd 36ca 943d
00000380: d654 c63d 80e7 103e 1d4c e93c 1664 33bd
00000390: a7f3 c33d b1f9 163c 4979 c13d c579 b3bd
000003a0: affd 84bc 663a 1cbd 3a4b 8d3d 8525 c33d
000003b0: 13dd 313e ddb3 c1bd ec16 96bc 043d 77be
000003c0: 3369 843d 5475 203e 1440 6a3d f75e 193e
000003d0: 4a6b 943d 8599 4b3e 873c d43d 1586 e6bd
000003e0: 8cdd 043b 6aa8 77bd 41d6 2dbc 1e2e 3e3d
000003f0: d1cf b1bb 4f8b a73c b13e a3bd 0311 cebc

fc1.bias f4 [128]
-0.01039931 -0.05090107 0.045302633 0.007352506 0.05262985 -0.04735039 -0.026390199 0.006271434
-0.08873328 0.0019293043 0.04686842 -0.111451715 0.04607923 0.021226456 0.013914738 -0.074823484
0.044325523 -0.09783993 -0.039052747 -0.047938284 -0.07463294 0.10205251 0.014839438 0.06615689
0.15885374 0.115635805 0.018448066 -0.028640391 0.04476868 -0.06313149 0.06412707 -0.034401044
0.04499972 -0.030792404 0.021775281 0.02657957 -0.06458538 0.01759838 0.06613079 0.072644316
-0.086172804 0.050545122 0.04675457 -0.006686443 -0.09453978 -0.10629388 0.029702641 -0.0705697
-0.04197564 -0.120718285 0.0070351046 0.021648169 0.0034047142 -0.049942356 -0.06825274 -0.08204825
-0.05973713 -0.069995254 0.0123637915 0.05282162 -0.06601834 -0.013757159 0.024984028 -0.049534585
-0.017369106 -0.030233538 0.03733574 -0.041866746 0.02987754 -0.06687236 0.0214184 -0.03332572
-0.044890244 0.03361404 -0.003272607 0.0075177294 0.0061810752 -0.00939851 0.03713918 -0.023338348
0.08597726 0.048530553 -0.08061119 0.033383768 -0.020094728 0.01896647 -0.048111524 0.059139576
0.009902401 -0.031009253 -0.033963162 -0.082246155 -0.0655957 -0.057312816 -0.07215714 -0.118160345
-0.0048026666 -0.08485968 -0.03346621 -0.033572216 -0.02101457 0.037517 -0.03527139 0.027993366
-0.018295143 -0.0393443 0.016402617 -0.073876746 -0.089434296 -0.0018868021 0.012292588 0.06307388
0.045313906 0.07027185 -0.0518193 -0.011880845 -0.004957736 0.052971963 -0.042037327 -0.06978609
-0.0969224 0.024785245 -0.062619984 -0.03108129 0.029209131 0.0006675196 0.011777829 -0.0030644953
00000000: de61 2abc a47d 50bd 418f 393d 4aed f03b
00000010: 6692 573d 7cf2 41bd 4230 d8bc 9a80 cd3b
00000020: cbb9 b5bd b6e0 fc3a 1af9 3f3d cc40 e4bd
00000030: 93bd 3c3d 1be3 ad3c a4fa 633c 0e3d 99bd
00000040: ae8e 353d 4d60 c8bd c6f5 1fbd ef5a 44bd
00000050: 28d9 98bd e800 d13d 1d21 733c 437d 873d
00000060: 8eaa 223e 77d2 ec3d 6620 973c 419f eabc
00000070: 5d5f 373d 154b 81bd 0e55 833d 1ce8 0cbd
00000080: a051 383d 5a40 fcbc 1362 b23c 66bd d93c
00000090: 5745 84bd 7a2a 903c 946f 873d 8bc6 943d
000000a0: 5e7b b0bd 6708 4f3d b881 3f3d f319 dbbb
000000b0: 129e c1bd 9bb0 d9bd f452 f33c d986 90bd
000000c0: a6ee 2bbd 263b f7bd bc86 e63b 8057 b13c
000000d0: a021 5f3b 5b90 4cbd 18c8 8bbd ea08 a8bd
000000e0: ecae 74bd ac59 8fbd 8091 4a3c 7c5b 583d
000000f0: a034 87bd b565 61bc 4eab cc3c c7e4 4abd
00000100: a849 8ebc 53ac f7bc 5ced 183d 777c 2bbd
00000110: bec1 f43c 60f4 88bd a475 af3c 8d80 08bd
00000120: d5de 37bd e0ae 093d 3c79 56bb 4957 f63b
00000130: 9e8a ca3b 35fc 19bc 411f 183d 1030 bfbc
00000140: d814 b03d f9c7 463d 7b17 a5bd 6bbd 083d
00000150: b39d a4bc 925f 9b3c 9710 45bd 573c 723d
00000160: ae3d 223c 1e07 febc f51c 0bbd ac70 a8bd
00000170: 0a57 86bd d8c0 6abd 1fc7 93bd 0dfe f1bd
00000180: b05f 9dbb e9ca adbd dd13 09bd 0583 09bd
00000190: bf26 acbc 6dab 193d bc78 10bd 5852 e53c
000001a0: b2df 95bc 7d27 21bd c85e 863c b14c 97bd
000001b0: 5429 b7bd 934e f7ba da66 493c e12c 813d
000001c0: 139b 393d b0ea 8f3d 7940 54bd e0a7 42bc
000001d0: 8174 a2bb 21f9 583d 552f 2cbd 02ec 8ebd
000001e0: 407f c6bd 6d0a cb3c e83e 80bd 319e febc
000001f0: fd47 ef3c 7bfc 2e3a ccf7 403c b3d5 48bb

fc2.weight f4 [64, 128]
-0.035144724 0.0043680905 0.117291436 -0.03334624 -0.09989765 0.05208021 -0.14274298 0.117429875
0.10151626 -0.115332514 0.02628234 0.0658659 -0.17410636 -0.16973971 0.08553983 0.05342323
0.16319402 -0.06809186 -0.12767707 -0.04312472 0.021674488 0.17497477 0.07614395 -0.012841583
0.21050294 0.004581798 0.14236408 -0.12760732 0.070257604 -0.083942845 0.031266417 -0.055933636
0.12389003 0.043216422 0.038322106 0.026868582 -0.04838914 -0.0873191 -0.13817483 0.1867564
-0.17943984 0.03389616 0.013789605 -0.018473877 -0.10653306 -0.08410957 0.2286652 0.06413475
-0.05982628 0.054700408 0.05407433 -0.023990294 -0.033455122 -0.13902757 0.17704211 0.045272153
0.0092739165 0.033367764 -0.07124747 0.17587405 -0.14517976 0.090643525 0.084646106 0.023719285
0.0032748536 -0.0698927 -0.09944305 -0.020198334 -0.003797776 0.098070234 0.06294499 -0.1391415
0.012518062 0.15410975 -0.18829648 -0.15386792 0.074398525 0.008388961 0.038101647 -0.111548364
-0.13424295 0.021778077 -0.17928544 -0.050493784 -0.011776924 -0.035697058 -0.14256269 0.00414017
0.09938919 -0.17630684 0.09452333 0.035851628 -0.022772085 0.06026864 0.02749553 -0.1261284
-0.025409132 -0.074231125 -0.16425191 0.035471268 -0.12118053 0.08106798 0.051098164 -0.04975448
0.021543557 0.07004631 -0.1373752 -0.054216564 -0.010464503 -0.017819842 0.056331154 -0.019527324
0.051072937 0.18413804 -0.24041359 0.09582986 0.06427958 -0.032964572 0.07353416 0.0005346405
0.102854766 -0.12943864 0.010292374 0.27188995 -0.05818048 0.03486048 0.028384972 0.022751229
-0.010841639 -0.19947113 -0.14381383 0.019639526 -0.080233924 0.015106985 0.13973661 -0.13457045
0.055362538 0.082864545 0.22082984 -0.056927215 0.122354805 -0.04430859 -0.06406132 -0.04520959
0.0728644 -0.05776165 0.15991414 0.106088676 0.009072261 0.24164179 0.05240508 0.088046655
0.16945697 0.17337915 -0.027120301 -0.09504457 0.18061644 -0.036268726 -0.1545723 -0.0044455575
0.07585711 0.058575094 0.00803938 0.17204915 0.042342518 -0.0075988774 -0.07450083 -0.19943199
-0.08794605 -0.096388794 0.080456816 -0.13626912 -0.14757878 0.021310184 0.044824444 0.009912978
-0.038525656 0.08592692 0.12664466 0.018063411 0.07320009 0.018556837 0.29476026 -0.07248423
0.013096649 0.042128917 0.02769703 0.19164057 -0.11108582 -0.08600285 -0.01451557 0.03979124
-0.027570894 -0.046695225 0.003609356 -0.007017728 -0.22678302 -0.08989082 0.15280373 -0.09843618
-0.02568511 -0.0357669 0.03961471 0.14359039 -0.018772572 0.06301284 -0.1361051 -0.06017754
-0.05005304 0.022401595 -0.19135955 0.03860589 0.0065386035 -0.005907518 -0.0778015 0.019194255
-0.1181308 -0.13644534 -0.05093912 0.14349622 -0.13019271 -0.076451756 0.03512709 0.07415898
0.062853 -0.038232613 0.084453344 -0.078618154 -0.024912834 0.12283578 0.09732214 0.070362404
-0.14750317 0.12069915 -0.042931333 -0.07439098 -0.16874877 0.06170054 0.24911141 0.043835104
-0.07439595 -0.056647316 0.13677955 0.009258555 -0.031454008 -0.066888615 -0.069517195 0.028892117
-0.07047636 -0.007392482 0.09114371 -0.21987548 0.015304446 -0.07895765 0.09119332 0.013993143
00000000: eaf3 0fbd 3322 8f3b 7e36 f03d 1196 08bd
00000010: 2497 ccbd 0f52 553d 372b 12be 137f f03d
00000020: c2e7 cf3d 7433 ecbd 104e d73c b3e4 863d
00000030: f048 32be 3fd0 2dbe 822f af3d 51d2 5a3d
00000040: 551c 273e bf73 8bbd c7bd 02be 8ca3 30bd
00000050: b28e b13c 962c 333e 5cf1 9b3d 8165 52bc
00000060: 158e 573e e822 963b e4c7 113e 7eab 02be
00000070: 38e3 8f3d 3aea abbd 3711 003d ab1a 65bd
00000080: 0eba fd3d b403 313d a4f7 1c3d 801b dc3c
00000090: b133 46bd 5bd4 b2bd b47d 0dbe 123d 3f3e
000000a0: 14bf 37be b3d6 0a3d cced 613c 8756 97bc
000000b0: 012e dabd a341 acbd 3627 6a3e 1459 833d
000000c0: 670c 75bd 890d 603d 0b7d 5d3d 4b87 c4bc
000000d0: 3d08 09bd 3e5d 0ebe 874a 353e 4b6f 393d
000000e0: a0f1 173c a3ac 083d 32ea 91bd 5418 343e
000000f0: 01aa 14be 50a3 b93d f05a ad3d f24e c23c
00000100: ed9e 563b e723 8fbd cca8 cbbd fa76 a5bc
00000110: 1ce4 78bb 0cd9 c83d 4ee9 803d 1c7b 0ebe
00000120: 8f18 4d3c f2ce 1d3e cbd0 40be 8d8f 1dbe
00000130: 415e 983d da71 093c 7910 1c3d 7873 e4bd
00000140: fc76 09be f067 b23c 9a96 37be 92d2 4ebd
00000150: 00f4 40bc 1437 12bd f4fb 11be 43aa 873b
00000160: 8f8c cb3d c889 34be 7395 c13d 28d9 123d
00000170: 868c babc 40dc 763d 4e3e e13c ce27 01be
00000180: d026 d0bc 7d06 98bd a731 28be 524a 113d
00000190: 7f2d f8bd f806 a63d 4f4c 513d 5bcb 4bbd
000001a0: 1d7c b03c 7174 8f3d 16ac 0cbe 3012 5ebd
000001b0: 4f73 2bbc ebfa 91bc 7fbb 663d c4f7 9fbc
000001c0: db31 513d af8e 3c3e fb2e 76be 7242 c43d
000001d0: 03a5 833d dc05 07bd 1499 963d 1e27 0c3a
000001e0: 85a5 d23d 908b 04be 58a1 283c 2935 8b3e
000001f0: a84e 6ebd ddc9 0e3d 9a87 e83c c960 ba3c
00000200: 21a1 31bc 2942 4cbe ef43 13be 12e3 a03c
00000210: af51 a4bd 4a83 773c 1d17 0f3e d6cc 09be
00000220: d4c3 623d e3b4 a93d 3821 623e 832c 69bd
00000230: 2895 fa3d ed7c 35bd 9532 83bd b12d 39bd
00000240: ee39 953d 7b97 6cbd 88c0 233e 0545 d93d
00000250: d2a3 143c f270 773e b6a6 563d ce51 b43d
00000260: 2186 2d3e 4e8a 313e 652b debc baa6 c2bd
00000270: 84f3 383e 848e 14bd 3348 1ebe 0aac 91bb
00000280: f95a 9b3d 70ec 6f3d 9bb7 033c a72d 303e
00000290: 596f 2d3d 0100 f9bb e493 98bd e637 4cbe
000002a0: 0f1d b4bd 7d67 c5bd 8bc6 a43d 228a 0bbe
000002b0: e41e 17be b292 ae3c d699 373d 0b6a 223c
000002c0: 14cd 1dbd 74fa af3d 23af 013e b8f9 933c
000002d0: eee9 953d 8204 983c d1ea 963e 9d72 94bd
000002e0: 5493 563c 5f8f 2c3d e2e4 e23c 6d3d 443e
000002f0: f680 e3bd 4322 b0bd b7d2 6dbc 24fc 223d
00000300: 5bdc e1bc 7e43 3fbd f28a 6c3b f8f4 e5bb
00000310: cf39 68be ae18 b8bd 9578 1c3e e898 c9bd
00000320: 9469 d2bc 5080 12bd 0943 223d 5c09 133e
00000330: f0c8 99bc e00c 813d 235f 0bbe b97c 76bd
00000340: 6b04 4dbd 8d83 b73c c2f3 43be 3621 1e3d
00000350: c841 d63b da93 c1bb 6556 9fbd 453d 9d3c
00000360: 90ee f1bd 54b8 0bbe 8aa5 50bd acf0 123e
00000370: 3d51 05be bd92 9cbd 6ce1 0f3d aae0 973d
00000380: 13b9 803d cd99 1cbd e0f5 ac3d 8e02 a1bd
00000390: 0016 ccbc 5391 fb3d d550 c73d 2a1a 903d
000003a0: 120b 17be 1e31 f73d c4d8 2fbd 4c5a 98bd
000003b0: 7acc 2cbe b5b9 7c3d 1017 7f3e 708c 333d
000003c0: e75c 98bd 0407 68bd f00f 0c3e 32b1 173c
000003d0: ebd5 00bd e6fc 88bd 085f 8ebd 29af ec3c
000003e0: e955 90bd a23c f2bb 8ea9 ba3d 0a27 61be
000003f0: 80bf 7a3c 8cb4 a1bd 90c3 ba3d 7f43 653c

fc2.bias f4 [64]
0.0013723854 0.13504364 0.07712839 -0.035363864 0.0109929 -0.09963577 -0.056327768 0.09409418
-0.070271336 0.05604676 -0.04014951 0.011016067 0.06990598 0.020866018 -0.07407555 -0.085729554
-0.009165383 0.027625324 0.113890536 -0.023296753 0.09811051 -0.038729887 -0.17097703 -0.07650448
0.09629902 -0.12839295 0.056533188 0.0039712824 -0.09170233 0.015083883 0.06818649 0.033832137
-0.053803023 -0.013374714 0.06587603 0.15190753 -0.08165857 0.08840667 0.053945974 0.0005035238
0.051631898 -0.08611401 -0.16796875 0.11600271 -0.047245923 0.011813276 0.117578365 0.05733014
-0.17801824 0.0034191054 0.12595412 -0.08040352 0.04961323 -0.060944725 0.09834798 -0.07768118
0.037486624 0.025057312 0.044635277 0.04541226 0.09141129 0.020585373 0.07504154 0.0006125716
00000000: 9de1 b33a e148 0a3e 7df5 9d3d b3d9 10bd
00000010: 901b 343c d70d ccbd f2b7 66bd 73b4 c03d
00000020: 6bea 8fbd 4a91 653d d073 24bd bc7c 343c
00000030: de2a 8f3d 36ef aa3c ecb4 97bd fa92 afbd
00000040: 672a 16bc 814e e23c 713f e93d d5d8 bebc
00000050: 2aee c83d 3ba3 1ebd 9a14 2fbe 61ae 9cbd
00000060: 6c38 c53d 7179 03be 588f 673d 8821 823b
00000070: 6ece bbbd 6422 773c 5ca5 8b3d 9193 0a3d
00000080: 8f60 5cbd 9e21 5bbc 03ea 863d a68d 1b3e
00000090: 9c3c a7bd 8e0e b53d 74f6 5c3d e9fe 033a
000000a0: f87b 533d 8b5c b0bd 0000 2cbe d492 ed3d
000000b0: f184 41bd 798c 413c edcc f03d 02d3 6a3d
000000c0: 6a4a 36be 1213 603b 1efa 003e 9aaa a4bd
000000d0: 3e37 4b3d 2da1 79bd aa6a c93d 4f17 9fbd
000000e0: 938b 193d fe44 cd3c 7bd3 363d 3502 3a3d
000000f0: d835 bb3d a8a2 a83c 61af 993d fc94 203a

fc3.weight f4 [10, 64]
-0.2927257 0.15958078 0.11891331 -0.045023054 -0.3879501 -0.008541909 -0.25325346 0.10675862
0.07223728 -0.012784656 -0.260957 -0.13806856 -0.09911963 0.116437525 -0.07663487 -0.14547698
0.06964523 -0.17333916 -0.29629698 0.18466091 0.15377164 -0.0008577286 -0.00080103165 0.107768215
0.061868902 0.0036131367 -0.104849115 -0.14845434 0.013710423 -0.3113234 0.027068453 0.18671231
-0.10265981 0.075291835 -0.00314372 -0.048064247 -0.22945766 0.050923824 -0.31758633 -0.45136902
-0.010061076 -0.17442796 -0.05735037 0.027545223 0.10561958 0.11313484 0.13002832 0.054054145
-0.029437575 -0.28782037 -0.012026021 -0.059145775 -0.26825246 -0.16103227 0.03764394 0.10436061
-0.012100683 0.11680067 -0.18924661 -0.12381216 0.1538315 0.09896479 -0.17969644 -0.21307327
0.087406665 0.13882029 -0.13957806 0.014784283 0.13430244 -0.40756917 -0.19110301 0.13815057
0.26290736 0.116693646 0.009928512 -0.085604504 -0.011615645 -0.17969644 -0.22884905 -0.007910386
0.14813243 -0.07158175 -0.08655987 0.00035441277 0.0013552291 0.01485121 -0.2380179 0.18403395
-0.22750044 0.017365895 -0.24983294 -0.15081339 -0.06859521 -0.103204615 0.048920672 -0.325988
0.048938077 -0.08889923 -0.08628815 0.07428966 -0.1511827 0.17541751 -0.18499425 0.0853512
0.12536618 0.019451419 -0.36794487 -0.24325638 -0.003184298 0.03203243 -0.18842344 0.15338418
0.11801927 -0.0017537518 -0.11483992 -0.10224467 0.09494759 -0.5072647 -0.04180354 -0.19491422
-0.031005522 -0.027251665 -0.1748326 -0.30156362 0.08537837 -0.08049237 -0.039313342 0.18308613
0.03203538 0.0029188364 -0.1736898 -0.03534201 -0.09678056 0.211424 -0.037799686 -0.27695313
-0.25006118 0.075226955 -0.22834948 0.25646597 0.11230115 -0.041053582 -0.2429382 -0.09673293
-0.04862559 -0.06643135 -0.21759173 0.13965018 -0.058087204 0.15107638 -0.28869063 -0.3253174
-0.18936162 -0.03499028 -0.0069343965 -0.03614188 -0.08987929 -0.28270203 0.015106711 -0.06714576
-0.122726955 0.1543138 0.10123296 -0.060529407 0.13518572 -0.15674089 0.06678884 0.089677595
-0.0059834225 0.023868114 -0.27131975 0.03436203 0.041502893 -0.0753587 0.010092908 -0.03403821
-0.03723439 -0.17422158 -0.14121512 -0.11909995 -0.024616407 -0.120904036 0.12439219 0.10085859
-0.4125538 -0.08459796 0.07554795 0.06395252 -0.124590285 0.01802177 0.01616534 0.1939716
-0.06632019 -0.2888275 0.07842396 -0.06663688 0.10431333 -0.10380341 -0.11790078 -0.126268
-0.15315843 -0.0037681987 0.009952389 0.026326418 0.047368255 -0.08724417 -0.15167679 -0.10047194
-0.058796998 -0.43625212 0.053836975 0.0075062825 0.1395957 0.13409105 -0.12994318 -0.24870895
0.1282362 0.014850591 -0.09221984 0.09731368 -0.27631256 0.11535049 -0.2577715 -0.22978728
0.12111323 -0.14684768 -0.20378935 0.18742526 0.1376667 0.10447062 -0.017388986 0.030199472
0.0007160311 -0.15140541 -0.1969366 0.02941141 -0.28285626 -0.10157136 0.025264032 -0.04294773
0.04689084 0.12976953 -0.20607974 -0.0019133122 -0.13228394 -0.13344075 0.05935779 0.063332245
-0.16594884 0.10654548 0.08724307 0.0070534847 -0.032056484 0.10814565 -0.10582053 -0.1926915
00000000: 25e0 95be 2569 233e d288 f33d 186a 38bd
00000010: 65a1 c6be 5df3 0bbc 70aa 81be 43a4 da3d
00000020: 24f1 933d bc76 51bc 289c 85be d861 0dbe
00000030: 3cff cabd cc76 ee3d bef2 9cbd ebf7 14be
00000040: 29a2 8e3d d27f 31be 3db4 97be c017 3d3e
00000050: 5076 1d3e 31d9 60ba 53fc 51ba 95b5 dc3d
00000060: 3f6a 7d3d 60ca 6c3b 22bb d6bd 6a04 18be
00000070: afa1 603c c865 9fbe a9be dd3c 8331 3f3e
00000080: 4e3f d2bd 9b32 9a3d df06 4ebb 04df 44bd
00000090: f3f6 6abe 8095 503d ad9a a2be d719 e7be
000000a0: 36d7 24bc 3e9d 32be 39e8 6abd 85a6 e13c
000000b0: 144f d83d 3db3 e73d 2526 053e e167 5d3d
000000c0: 1227 f1bc 315d 93be ca08 45bc d742 72bd
000000d0: 6358 89be a5e5 24be 8830 1a3d 04bb d53d
000000e0: f141 46bc 3135 ef3d ddc9 41be 3b91 fdbd
000000f0: 0186 1d3e 0dae ca3d 5802 38be e12f 5abe
00000100: 4402 b33d e826 0e3e 8ded 0ebe c739 723c
00000110: 9486 093e e8ac d0be 82b0 43be 5877 0d3e
00000120: cb9b 863e 14fd ee3d 33ab 223c 6a51 afbd
00000130: 8c4f 3ebc 5802 38be 6857 6abe 909a 01bc
00000140: 07b0 173e 7499 92bd 4d46 b1bd 7ad0 b939
00000150: f1a1 b13a 7d52 733c f7ba 73be 6573 3c3e
00000160: e0f5 68be ec42 8e3c 35d4 7fbe d36e 1abe
00000170: a57b 8cbd f15c d3bd 0b61 483d e6e7 a6be
00000180: 4b73 483d cd10 b6bd d7b7 b0bd 2d25 983d
00000190: a3cf 1abe a6a0 333e 226f 3dbe 9ccc ae3d
000001a0: fe5f 003e 9558 9f3c 4563 bcbe 3318 79be
000001b0: a8af 50bb 7034 033d 13f2 40be be10 1d3e
000001c0: 16b4 f13d 25de e5ba 3131 ebbd a765 d1bd
000001d0: e273 c23d 19dc 01bf 303a 2bbd 9897 47be
000001e0: 4bff fdbc e23e dfbc 5107 33be 8c66 9abe
000001f0: dbda ae3d 2fd9 a4bd 0707 21bd ee7a 3b3e
00000200: 8837 033d f349 3f3b bddb 31be c9c2 10bd
00000210: e334 c6bd 887f 583e d8d3 1abd cdcc 8dbe
00000220: 0508 80be 9710 9a3d 72d4 69be 824f 833e
00000230: 25fe e53d cd27 28bd cbc4 78be ea1b c6bd
00000240: a02b 47bd 290d 88bd 5ed0 5ebe 7500 0f3e
00000250: d9ec 6dbd c4b3 1a3e 42cf 93be 0190 a6be
00000260: 03e8 41be f851 0fbd ef39 e3bb 8209 14bd
00000270: a212 b8bd 52be 90be 2382 773c b783 89bd
00000280: 4558 fbbd 7004 1e3e 3a53 cf3d afed 77bd
00000290: 206e 0a3e af80 20be 96c8 883d e3a8 b73d
000002a0: 9610 c4bb 1087 c33c 6cea 8abe 33bf 0c3d
000002b0: f0fe 293d a955 9abd b95c 253c a66b 0bbd
000002c0: 1683 18bd 2467 32be b29a 10be adea f3bd
000002d0: 59a8 c9bc 899c f7bd 55c1 fe3d f38e ce3d
000002e0: 403a d3be b241 adbd e2b8 9a3d 8af9 823d
000002f0: 3129 ffbd 64a2 933c 2d6d 843c 7ea0 463e
00000300: e1d2 87bd 33e1 93be be9c a03d eb78 88bd
00000310: 3aa2 d53d e296 d4bd f775 f1bd 664c 01be
00000320: 90d5 1cbe e2f3 76bb 580f 233c 80aa d73c
00000330: 3705 423d 12ad b2bd 2951 1bbe 3cc4 cdbd
00000340: 1fd5 70bd 705c dfbe 2984 5c3d 43f7 f53b
00000350: 2df2 0e3e 2a4f 093e d30f 05be 8fad 7ebe
00000360: 5a50 033e e54f 733c c1dd bcbd 654c c73d
00000370: d778 8dbe e13c ec3d a0fa 83be 5b4d 6bbe
00000380: 370a f83d 3d5f 16be 28ae 50be 68ec 3f3e
00000390: 80f8 0c3e b1f4 d53d 5973 8ebc e264 f73c
000003a0: 09b4 3b3a 050a 1bbe c0a9 49be 33f0 f03c
000003b0: 89d2 90be a504 d0bd 84f6 ce3c f5e9 2fbd
000003c0: 9c10 403d 4ee2 043e 9106 53be 1bc8 faba
000003d0: 7175 07be b1a4 08be 2721 733d 56b4 813d
000003e0: 7eee 29be 8434 da3d 7fac b23d eb20 e73b
000003f0: a94d 03bd 777b dd3d 6fb8 d8bd ec50 45be

fc3.bias f4 [10]
0.007845292 -0.006082677 -0.14109567 -0.13572966 -0.0009534276 -0.045978338 -0.14467992 0.027689584
-0.006847788 -0.11679023
00000000: 8a89 003c 3151 c7bb 627b 10be b7fc 0abe
00000010: 71ef 79ba c853 3cbd f926 14be 44d5 e23c
00000020: 6963 e0bb b72f efbd
