full_model.pth (torch, 117783 bytes, 6 tensors)

conv1.0.weight f4 [16, 1, 5, 5]
0.026432112 -0.014697477 0.050287023 -0.011849165 0.03537765 0.057818547 -0.17499347 -0.04668109
-0.12623662 0.18981881 0.12625267 -0.18847917 0.03830862 -0.16328856 0.057066903 -0.08551174
0.10786481 -0.055378586 0.16290422 -0.10421343 -0.18555884 0.035681173 -0.047012776 -0.0422031
-0.1357224 0.0066168606 0.07007788 -0.16342382 0.11607967 -0.023523062 -0.19443627 0.0016068965
-0.06819543 -0.1457462 0.07092585 0.037277296 0.17869945 -0.16011448 -0.050287455 -0.07566478
-0.07216756 -0.12342506 0.15121163 -0.11933954 0.096855745 0.013290212 0.14657812 -0.0013286322
0.16589962 -0.13021144 0.18964984 0.00080761313 0.05585651 -0.028802186 -0.021314308 0.020786256
0.1624477 -0.1443245 -0.16511746 -0.08339863 0.1871456 -0.08118727 -0.19297771 -0.06545743
0.091011 -0.18947542 -0.15898848 0.0791419 -0.1837077 -0.10471594 0.08865358 0.06462939
-0.1412913 0.03181298 -0.13077743 0.01768963 -0.14001217 0.032998607 -0.14338799 0.13136621
0.10495518 0.027879193 -0.097872116 -0.068689495 -0.17655002 -0.10241399 0.107891545 -0.13122472
0.016751766 -0.16156201 0.042318583 0.07629289 0.058756515 0.084312096 0.053646997 -0.086809374
-0.09685035 -0.13383663 -0.02358234 -0.19491708 0.09212364 -0.16912186 -0.093818426 0.09312673
0.12897794 0.04150334 -0.0554111 0.13168634 -0.059145167 0.030123636 -0.18824466 -0.13444073
0.026980042 0.09139253 -0.16403086 0.09719612 -0.105408885 0.18071912 0.08824523 -0.06650841
-0.17651276 0.042636007 -0.03635803 0.10080592 -0.025133222 -0.19534194 0.06970914 -0.16699524
-0.03786722 0.079331115 -0.13504991 0.12884064 -0.051190063 0.05062665 0.16006376 0.07444094
0.05801703 -0.0028442144 0.10463275 -0.07377365 0.15044774 -0.102388956 -0.07398918 0.06910445
0.045451194 -0.074765086 0.11205469 0.033291966 0.043072373 -0.117568925 0.038761705 -0.034980968
-0.08247085 0.15577556 -0.12509128 -0.03835562 0.0054194927 0.19445826 0.16209961 0.18252234
0.13307534 -0.059242725 0.18615411 0.05960144 0.049843952 -0.10550957 -0.1691979 -0.16132668
-0.0812186 0.049276084 -0.111410476 0.09776081 0.19563596 0.14944042 0.028783679 -0.12036698
-0.14817011 -0.049520567 0.092968956 0.1863098 0.10075386 -0.0680863 -0.194502 -0.14780894
-0.13351801 -0.1893845 0.1838846 -0.1534358 -0.19015394 -0.15739551 0.088860676 0.080363855
0.14302851 0.16630472 0.11395605 0.023471832 -0.11471007 0.006737143 -0.10010822 0.07954799
-0.16336818 0.17979957 -0.16940191 -0.06788747 -0.14567283 0.04514484 0.18584163 0.08363484
-0.18434559 0.13714425 -0.14247021 0.07272293 0.045310542 -0.09965458 0.15076984 -0.15986493
0.14716159 -0.16896375 -0.06875506 -0.069296196 -0.17964728 -0.12203293 0.117599264 -0.05843237
-0.16078265 -0.18949763 0.18010537 -0.08585632 -0.1457471 0.113510236 -0.13437076 -0.047646612
0.00493519 -0.16171977 0.18502311 -0.0798563 0.05199863 0.16017382 -0.11233642 -0.13456458
-0.11953881 -0.11944594 0.059568122 0.12243216 -0.09515875 0.044115543 0.00552018 0.14980681
0.19908886 -0.1746658 -0.05333385 -0.19727693 -0.09474726 0.19255836 0.07923795 0.19967268
00000000: 2888 d83c b0cd 70bc c4f9 4d3d 0023 42bc
00000010: 28e8 103d 24d3 6c3d 7d31 33be ac34 3fbd
00000020: 2c44 01be dd5f 423e 6148 013e af00 41be
00000030: 80e9 1c3d 1e35 27be fcbe 693d c720 afbd
00000040: 3ae8 dc3d a8d4 62bd 5dd0 263e da6d d5bd
00000050: 2303 3ebe 6c26 123d 7890 40bd 28dd 2cbd
00000060: d0fa 0abe 40d2 d83b fe84 8f3d 9358 27be
00000070: 2ebb ed3d 70b3 c0bc 4d1a 47be 809e d23a
00000080: 0caa 8bbd 7e3e 15be 9241 913d 14b0 183d
00000090: fdfc 363e 0df5 23be 38fa 4dbd 23f6 9abd
000000a0: 96cc 93bd 47c6 fcbd 39d7 1a3e 4a68 f4bd
000000b0: 4e5c c63d 30bf 593c 9318 163e 8025 aeba
000000c0: 97e1 293e 2656 05be 9133 423e 00b6 533a
000000d0: ccc9 643d 90f2 ebbc 589b aebc f047 aa3c
000000e0: b158 263e cdc9 13be 8d14 29be e7cc aabd
000000f0: 19a3 3f3e 8345 a6bd f39b 45be 8c0e 86bd
00000100: fa63 ba3d d805 42be e0cd 22be 2615 a23d
00000110: df1d 3cbe 5075 d6bd 0290 b53d 6a5c 843d
00000120: abae 10be 544e 023d 85ea 05be d8e9 903c
00000130: 5a5f 0fbe 8c29 073d 4dd4 12be dd84 063e
00000140: bef2 d63d e862 e43c 2d71 c8bd 14ad 8cbd
00000150: 87c9 34be 6dbe d1bd 3ef6 dc3d c65f 06be
00000160: 003b 893c 8370 25be 4056 2d3d 723f 9c3d
00000170: acaa 703d d2ab ac3d f4bc 5b3d 1dc9 b1bd
00000180: 7a59 c6bd 780c 09be c02f c1bc 5898 47be
00000190: 52ab bc3d 482e 2dbe e023 c0bd 3ab9 be3d
000001a0: cb12 043e 68ff 293d c0f6 62bd c9d8 063e
000001b0: 3442 72bd d8c5 f63c 35c3 40be d5aa 09be
000001c0: 4005 dd3c 022c bb3d b5f7 27be c20e c73d
000001d0: 9de0 d7bd 6f0e 393e eab9 b43d 9035 88bd
000001e0: c3bf 34be 18a3 2e3d 28ec 14bd 5673 ce3d
000001f0: 30e4 cdbc b807 48be aac3 8e3d cd00 2bbe
00000200: a81a 1bbd 5a78 a23d 864a 0abe cdee 033e
00000210: acac 51bd e45d 4f3d c1e7 233e 7e74 983d
00000220: 44a3 6d3d 0066 3abb b249 d63d a416 97bd
00000230: f90e 1a3e 4db1 d1bd a487 97bd a286 8d3d
00000240: 082b 3a3d 701e 99bd ee7c e53d 285d 083d
00000250: a86c 303d fac7 f0bd 98c4 1e3d 3448 0fbd
00000260: 7ae6 a8bd a183 1f3e ee17 00be c81a 1dbd
00000270: 0096 b13b 1120 473e 71fd 253e 23e7 3a3e
00000280: e744 083e 80a8 72bd 2f9f 3e3e a420 743d
00000290: 2c29 4c3d 6715 d8bd 3742 2dbe d232 25be
000002a0: f055 a6bd b8d5 493d 2d2b e4bd d236 c83d
000002b0: cb54 483e e906 193e c0cb eb3c f782 f6bd
000002c0: e8b9 17be 14d6 4abd 8266 be3d ffc7 3e3e
000002d0: 0a58 ce3d d470 8bbd 882b 47be 3a5b 17be
000002e0: f2b8 08be 03ee 41be 3f4c 3c3e 461e 1dbe
000002f0: b7b7 42be 4a2c 21be 96fc b53d ce95 a43d
00000300: 1176 123e c94b 2a3e ca61 e93d 0048 c03c
00000310: 1ded eabd 40c3 dc3b 8a05 cdbd 0eea a23d
00000320: fd49 27be 611d 383e b277 2dbe 9608 8bbd
00000330: 422b 15be cce9 383d 454d 3e3e be48 ab3d
00000340: 17c5 3cbe 8b6f 0c3e b6e3 11be c2ef 943d
00000350: 8c97 393d b317 ccbd 6963 1a3e a2b3 23be
00000360: 87b1 163e d504 2dbe 74cf 8cbd 2aeb 8dbd
00000370: 75f5 37be 67ec f9bd e2d7 f03d c856 6fbd
00000380: 35a4 24be ab0b 42be 8b6d 383e 70d5 afbd
00000390: ba3e 15be 0e78 e83d 7d98 09be 1829 43bd
000003a0: 60b7 a13b de99 25be b376 3d3e b38b a3bd
000003b0: 84fc 543d 9b04 243e a310 e6bd 4ccb 09be
000003c0: c3d0 f4bd 13a0 f4bd b4fd 733d b6bd fa3d
000003d0: 97e2 c2bd 80b2 343d a0e2 b43b f566 193e
000003e0: f3dd 4b3e 97db 32be 9874 5abd f702 4abe
000003f0: da0a c2bd 052e 453e 8247 a23d ff76 4c3e

conv1.0.bias f4 [16]
-0.17147315 -0.18151043 0.18603723 -0.18056278 -0.16958824 -0.16762626 -0.18787435 -0.013648301
-0.103062846 -0.07514205 0.09783335 -0.07887125 0.15461005 0.05615805 0.009043932 -0.058959365
00000000: a896 2fbe dfdd 39be 8b80 3e3e 73e5 38be
00000010: 8aa8 2dbe 38a6 2bbe 2262 40be 209d 5fbc
00000020: 9d12 d3bd 13e4 99bd da5c c83d 4087 a1bd
00000030: 1952 1e3e fc05 663d 002d 143c 607f 71bd

conv2.0.weight f4 [32, 16, 5, 5]
0.00023049861 0.040276777 -0.0058159046 0.028808001 0.0028434396 0.036186773 0.042018753 -0.015959121
0.04343034 -0.03290807 0.039774876 -0.00613752 -0.029890968 0.011589866 0.013935003 -0.03763374
-0.036615975 0.012462836 -0.009867419 -0.02355116 0.028637085 0.036573466 0.019812565 -0.001263164
-0.039547294 -0.020373309 -0.002016127 -0.0425735 0.007912375 -0.04056104 0.0022017732 -0.010173738
-0.036153257 0.04677892 0.002536822 0.036515344 -0.00890879 0.012626428 0.016677719 0.0071461797
0.021462638 -0.02562868 0.030930746 0.04366721 -0.02499268 -0.019551469 -0.030226916 0.003808774
0.014542591 -0.009917252 0.005666584 0.04939836 -0.03608653 -0.012357432 -0.022110933 0.0077211037
-0.03880912 0.015531246 0.033485267 0.021171767 -0.020155013 -0.0441597 -0.0012530498 -0.0014332756
-0.013825245 -0.042014755 0.03825624 0.028917406 -0.04106801 0.037551884 -0.019968553 0.041883353
0.03795932 -0.017289467 0.021063033 -0.0058744065 0.009828728 0.028047387 -0.019136691 0.033057217
-0.025999803 -0.0032908134 0.037117545 0.008261453 0.029199678 -0.016155899 0.027899552 -0.038560767
0.0040867217 -0.0050086156 0.0066260584 -0.040306788 0.04018249 -0.046622254 0.01048876 -0.022098644
-0.019482637 0.0035381913 0.019599121 -0.0036250725 0.006290011 -0.025144875 -0.021760507 0.0031620786
0.014602449 0.0038983226 0.03218143 -0.025699658 0.003075011 -0.034214664 0.008708846 0.034098748
-0.02104252 0.008225359 0.04196996 0.016032796 -0.046396583 0.029539261 -0.040184043 -0.019474322
0.013972748 -0.040309537 -0.009090491 -0.013228454 0.004660867 -0.037009895 -0.041260857 0.001872927
0.014158066 -0.013040818 -0.02785684 -0.013219185 -0.04068833 0.03448567 0.04119638 -0.0037532672
0.0027565844 0.020766597 -0.005813867 0.049708206 0.036591377 -0.014594216 -0.04243361 -0.04533244
0.039222036 0.034116093 0.020353142 -0.03945704 0.047116492 -0.0028428547 -0.023376156 -0.029286718
0.021658186 -0.008210372 0.036424767 0.03746913 0.03646711 -0.0027885213 -0.03795252 -0.00017566234
0.010525864 -0.04160732 -0.03113479 -0.040734686 -0.028518636 0.008325212 -0.0032973178 0.041553628
0.027703647 -0.045084756 0.023392666 -0.032150827 -0.0025194213 0.010749124 -0.036850013 -0.018031884
0.042571355 -0.012588877 -0.008419592 -0.0011371784 -0.03967471 0.007013876 -0.040074985 -0.035980295
-0.024959702 -0.04509608 -0.031509824 0.044829834 -0.008382659 0.043423746 -0.0012425259 -0.027190788
-0.03324814 -0.03460033 -0.0083156 0.016622957 0.019377623 -0.0036727712 -0.01072051 0.01567075
-0.016363062 0.005440194 -0.0024464838 -0.033060044 -0.047951173 0.025707323 0.02480409 -0.02973414
-0.018574428 -0.0061586984 0.0444131 -0.043230783 0.0025184453 -0.046801742 0.012642462 -9.476021e-05
-0.003380306 -0.0093736835 0.012702759 -0.030503606 0.04831482 -0.04931419 -0.011408675 0.03143474
0.019505326 0.02974544 -0.03944368 -0.025653053 0.00033650547 -0.010697924 0.0025326833 -0.03566184
-0.009170454 -0.040216364 0.044290688 -0.040057987 0.04349416 0.040624026 -0.013260044 0.0017801747
0.019804563 0.024046633 -0.03772177 0.015130248 -0.014848411 0.0314773 -0.04400223 -0.009687461
-0.043161105 0.037596498 0.036834273 -0.036183953 -0.0038132854 0.038213227 -0.02182436 -0.015517969
00000000: 00b2 7139 43f9 243d 5893 bebb c2fe eb3c
00000010: 0059 3a3b 9538 143d db1b 2c3d b4bc 82bc
00000020: 03e4 313d 9dca 06bd fbea 223d 401d c9bb
00000030: e7dd f4bc 6ce3 3d3c a44f 643c d625 1abd
00000040: a2fa 15bd ec30 4c3c f4aa 21bc 5dee c0bc
00000050: 5298 ea3c 0fce 153d f64d a23c c090 a5ba
00000060: 58fc 21bd ede5 a6bc 0021 04bb 8d61 2ebd
00000070: e8a2 013c 5523 26bd a04b 103b c0af 26bc
00000080: 7015 14bd 419b 3f3d d040 263b 1d91 153d
00000090: 2cf6 11bc 14df 4e3c b69f 883c 802a ea3b
000000a0: 6ad2 af3c 3df3 d1bc 7a62 fd3c 63dc 323d
000000b0: 73bd ccbc 672a a0bc 709e f7bc a09c 793b
000000c0: 0c44 6e3c f87b 22bc c0ae b93b ef55 4a3d
000000d0: 78cf 13bd d476 4abc fd21 b5bc 5001 fd3b
000000e0: 50f6 1ebd c476 7e3c d927 093d 6a70 ad3c
000000f0: 201c a5bc cde0 34bd 603d a4ba c0dc bbba
00000100: 4883 62bc aa17 2cbd 93b2 1c3d 32e4 ec3c
00000110: ee36 28bd 01d0 193d 1795 a3bc e18d 2b3d
00000120: 3b7b 1b3d a4a2 8dbc 628c ac3c 187e c0bb
00000130: ac08 213c a2c3 e53c 8dc4 9cbc 0167 073d
00000140: 8afd d4bc b0aa 57bb 9108 183d 0c5b 073c
00000150: 2a34 ef3c 6059 84bc 9a8d e43c e5f1 1dbd
00000160: e8e9 853b 501f a4bb 681f d93b bb18 25bd
00000170: 6596 243d faf6 3ebd 0cd9 2b3c 3708 b5bc
00000180: 0d9a 9fbc 00e1 673b 568e a03c a092 6dbb
00000190: 701c ce3b a0fc cdbc 1743 b2bc e03a 4f3b
000001a0: 1c3f 6f3c 007b 7f3b add0 033d 1788 d2bc
000001b0: 2086 493b ad24 0cbd 8caf 0e3c 21ab 0b3d
000001c0: 5d61 acbc a8c3 063c b1e8 2b3d 3657 833c
000001d0: 580a 3ebd 52fc f13c 0698 24bd 9d88 9fbc
000001e0: f4ed 643c 9d1b 25bd 48f0 14bc 28bc 58bc
000001f0: 30ba 983b b097 17bd 2501 29bd 007d f53a
00000200: 3cf7 673c 28a9 55bc 0734 e4bc 4895 58bc
00000210: cea8 26bd d940 0d3d 89bd 283d 60f9 75bb
00000220: d0a7 343b b61e aa3c 4082 bebb d59a 4b3d
00000230: d7e0 153d 941c 6fbc ddce 2dbd 82ae 39bd
00000240: 49a7 203d 51bd 0b3d a2bb a63c b59d 21bd
00000250: 39fd 403d 304f 3abb 5a7f bfbc b3ea efbc
00000260: 826c b13c cc84 06bc 2332 153d 3b79 193d
00000270: 895e 153d a0bf 36bb 1a74 1bbd 0032 38b9
00000280: ac74 2c3c 706c 2abd 630e ffbc 6ad9 26bd
00000290: ea9f e9bc 7866 083c d017 58bb 2334 2a3d
000002a0: c2f2 e23c cbaa 38bd faa1 bf3c 96b0 03bd
000002b0: e01c 25bb 181d 303c 0af0 16bd 9ab7 93bc
000002c0: 4d5f 2e3d 9441 4ebc 54f2 09bc 600d 95ba
000002d0: f381 22bd a8d4 e53b ab25 24bd 1360 13bd
000002e0: 4a78 ccbc abb6 38bd 7210 01bd 7d9f 373d
000002f0: 6c57 09bc 19dd 313d 40dc a2ba 37bf debc
00000300: 342f 08bd 13b9 0dbd 283e 08bc de2c 883c
00000310: d2bd 9e3c e0b2 70bb 14a5 2fbc f25f 803c
00000320: d40b 86bc a843 b23b 3055 20bb f869 07bd
00000330: 7368 44bd 2a98 d23c f231 cb3c 0395 f3bc
00000340: 6629 98bc e8ce c9bb 83ea 353d c312 31bd
00000350: 800c 253b 2fb3 3fbd 5422 4f3c 00ba c6b8
00000360: 2088 5dbb 1494 19bc 3c1f 503c b3e2 f9bc
00000370: c3e5 453d adfd 49bd 74eb 3abc b7c1 003d
00000380: a2c9 9f3c b6ac f33c b28f 21bd 5a26 d2bc
00000390: 006d b039 5846 2fbc 60fb 253b 2612 12bd
000003a0: ac3f 16bc eab9 24bd 276a 353d d813 24bd
000003b0: ef26 323d 6165 263d a840 59bc c054 e93a
000003c0: 2e3d a23c 72fd c43c 2582 1abd dce4 773c
000003d0: c046 73bc 57ee 003d af3b 34bd 28b8 1ebc
000003e0: b3c9 30bd c9fe 193d 89df 163d a035 14bd
000003f0: 50e8 79bb 7985 1c3d 00c9 b2bc 143f 7ebc

conv2.0.bias f4 [32]
-0.03381946 -0.0263269 0.018217374 -0.02173537 -0.041032724 0.026418421 -0.037152905 -0.025425797
-0.03921216 0.034141164 0.049422894 -0.0012021847 0.029573265 0.03670113 0.0034315884 0.026828472
-0.025509447 -0.04731796 0.005026065 -0.020618588 0.01712006 0.029463362 0.014085975 -0.037389733
0.02613781 -0.039687492 -0.025013942 0.036763776 -0.023343265 -0.028645534 0.0009751916 -0.028815908
00000000: 4686 0abd 83ab d7bc 9a3c 953c 600e b2bc
00000010: ee11 28bd 726b d83c a52d 18bd c349 d0bc
00000020: ee9c 20bd 9bd7 0b3d a96f 4a3d a092 9dba
00000030: a243 f23c ed53 163d 80e4 603b 62c7 db3c
00000040: 30f9 d0bc 7ad0 41bd b0b1 a43b 50e8 a8bc
00000050: 5e3f 8c3c 265d f13c dcc8 663c fa25 19bd
00000060: f61e d63c 5a8f 22bd 0aea ccbc 9d95 163d
00000070: 603a bfbc 0aaa eabc 00a4 7f3a 570f ecbc

out.weight f4 [10, 1568]
-0.012357176 0.004207652 0.0073965117 -0.010483731 0.0063160807 -0.002251707 0.024445575 0.018929958
-0.01908815 -0.0031257365 -0.006537389 0.0019940455 0.008620754 0.0037347917 -0.021617357 0.023298074
-0.020501286 0.0063554198 -0.024970843 0.017082281 0.0024811216 0.008947365 -0.010959349 0.014248673
0.020976774 0.007474009 0.0028170645 -0.007825345 0.011889808 -0.013994834 -0.005218517 -0.01585726
-0.022652814 0.011708576 -0.020197378 -0.022680514 -0.0014824122 0.012605328 0.0130687505 -0.015483919
0.0047819912 0.0033855718 0.014147934 0.014021214 -0.00039325096 0.018469602 -0.002318481 -0.0043481216
0.017142411 -0.007085029 0.0027758218 -0.0013743304 -0.010369669 0.014233638 -0.007815583 -0.012893323
-0.008965237 -0.02062482 -0.01888223 0.02305996 -0.0025080089 0.025250513 -0.009658074 -0.0070496574
-0.011851842 -0.0031196047 -0.0072759874 0.004798945 0.021428704 0.002664514 -0.017810244 -0.00017278455
-0.015946724 -0.009473642 0.018812738 0.009978127 0.011202309 0.019209735 -0.021371499 -0.022655798
0.0062866993 0.005957864 -0.013888338 -0.019610792 0.023286376 0.0077916905 -0.00035153516 -0.016991224
0.008021705 -0.022380644 -0.0095847715 -0.01665064 0.022086795 0.006905064 -0.006241912 0.024499025
0.014276635 -0.008620542 -0.002498405 0.011083618 0.018026855 0.018156204 0.020177651 0.014437702
-0.014645238 0.0023291577 0.007845562 -0.008914193 0.010858621 -0.020677099 0.011985749 0.013028983
0.00914358 -0.00550019 0.014358509 -0.004826816 0.014395595 -0.023990138 -0.011391293 0.014911581
-0.011361652 -0.0035583116 0.013272081 0.016416151 0.0010296982 -0.020091956 -0.008773174 -0.015652094
-0.018365743 -0.007953698 0.0087355785 -0.023911525 -0.0020391457 0.011261053 -0.021783484 -0.006042933
-0.022044761 0.013482921 0.021347169 -0.007714033 -0.025050037 -0.019845948 0.0054502953 -0.023039788
0.024491943 0.0023421422 -0.0063199475 -0.015169081 -0.009975479 -0.012018845 0.0072182454 0.0037795156
0.0065811127 -0.018968254 -0.0052527674 -0.01269423 0.019889247 0.010829262 0.009378877 -0.008364126
0.013139866 -0.0182442 0.0066554733 -0.023104303 0.010173734 0.0112601705 -0.016435422 -0.0002681408
0.021393768 0.0004079789 0.018431652 -0.018139709 -0.010776591 -0.012092819 0.01676435 -0.018965133
-0.016544772 -0.0057973713 -0.017976224 0.0039049052 0.018667497 -0.0037942678 -0.024109215 0.024909277
-0.007947197 -0.00093400106 0.0059558097 -0.012126931 -0.0059414357 -0.011212193 -0.023871578 -0.014405784
0.019797292 0.016800717 -0.00929709 0.0004082676 0.022451099 0.012099076 0.019627053 -0.015152623
0.024807297 0.010102551 0.008402355 0.01430992 -0.006639123 -0.016975898 -0.0145566305 0.0044419654
-0.011678353 0.017029218 0.010082852 0.010729592 0.02108892 0.020467944 0.014254436 0.0048422217
-0.018552233 0.02311492 0.019028965 0.003977645 0.022242207 0.021454874 -0.013856273 -0.012439302
-0.02081338 -0.013338496 0.01657885 0.0004612431 0.008775432 -0.0072765388 -0.016209016 -0.018127726
-0.005173195 -0.018151142 0.022111539 -0.008523192 0.011324938 -0.010835825 -0.0006191619 -0.014777101
0.02474077 0.0011826381 -0.008245835 -0.01345366 0.017278645 -0.0072807055 0.017176516 0.015613075
-0.010009639 -0.0072829183 -0.012006385 -0.006024381 -0.00024290383 -0.0026665889 -0.014437864 -0.019242963
00000000: c175 4abc 58e0 893b 705e f23b f4c3 2bbc
00000010: 20f7 ce3b 6091 13bb 1642 c83c 0013 9b3c
00000020: c05e 9cbc 28d9 4cbb 9837 d6bb 88ae 023b
00000030: 103e 0d3c 68c3 743b e216 b1bc 9adb be3c
00000040: 50f2 a7bc 2041 d03b a78f ccbc 24f0 8b3c
00000050: 509a 223b f897 123c d78e 33bc 4473 693c
00000060: 7cd7 ab3c 88e8 f43b 809e 383b e035 00bc
00000070: 78cd 423c 974a 65bc 1800 abbb 16e7 81bc
00000080: 6592 b9bc 54d5 3f3c f974 a5bc 7ccc b9bc
00000090: 804d c2ba 9486 4e3c 501e 563c 43b0 7dbc
000000a0: 40b2 9c3b 78e0 5d3b bccc 673c 3cb9 653c
000000b0: 402d ceb9 904d 973c a8f1 17bb b07a 8ebb
000000c0: 3e6e 8c3c 8829 e8bb 90ea 353b e022 b4ba
000000d0: 8be5 29bc 3434 693c ee0c 00bc 843e 53bc
000000e0: eee2 12bc 62f5 a8bc e8ae 9abc 3ee8 bc3c
000000f0: 685d 24bb 2ada ce3c e63c 1ebc d000 e7bb
00000100: 3a2e 42bc 4872 4cbb 686b eebb 7840 9d3b
00000110: 408b af3c 209f 2e3b cae6 91bc 802d 35b9
00000120: b4a2 82bc 5637 1bbc 2c1d 9a3c 4c7b 233c
00000130: e489 373c bc5d 9d3c 4813 afbc a798 b9bc
00000140: a800 ce3b 303a c33b e98b 63bc d0a6 a0bc
00000150: 12c3 be3c 7051 ff3b 404e b8b9 2e31 8bbc
00000160: 786d 033c 9d57 b7bc 7209 1dbc ec66 88bc
00000170: 5eef b43c e043 e23b f488 ccbb 2eb2 c83c
00000180: 8ce8 693c 2c3d 0dbc 48bc 23bb 1098 353c
00000190: 0ead 933c 52bc 943c 9a4b a53c 1c8c 6c3c
000001a0: 95f2 6fbc c8a4 183b ac8a 003c d60c 12bc
000001b0: 5ce8 313c 0563 a9bc e05f 443c 8477 553c
000001c0: f4ce 153c f03a b4bb f43f 6b3c 442a 9ebb
000001d0: 80db 6b3c f786 c4bc 8ca2 3abc b44f 743c
000001e0: 3926 3abc 9032 69bb 2473 593c 2a7b 863c
000001f0: f0f6 863a e397 a4bc 5cbd 0fbc d238 80bc
00000200: c173 96bc 3a50 02bc ac1f 0f3c 1ae2 c3bc
00000210: 30a3 05bb 4880 383c 4773 b2bc cc03 c6bb
00000220: 3797 b4bc 78e7 5c3c 42e0 ae3c 00c6 fcbb
00000230: bc35 cdbc f893 a2bc 6498 b23b f0bd bcbc
00000240: 54a3 c83c a07e 193b 9017 cfbb bd87 78bc
00000250: 3170 23bc b1ea 44bc 0887 ec3b c0b1 773b
00000260: 60a6 d73b 5063 9bbc 681f acbb 76fb 4fbc
00000270: c6ee a23c 386d 313c dca9 193c b009 09bc
00000280: 9848 573c dc74 95bc 2816 da3b 3c45 bdbc
00000290: bcaf 263c 947c 383c 94a3 86bc 4095 8cb9
000002a0: fc41 af3c 00e6 d539 fafd 963c ba99 94bc
000002b0: 4c90 30bc f620 46bc 6455 893c c45c 9bbc
000002c0: e788 87bc e0f7 bdbb e042 93bc 70e9 7f3b
000002d0: 94ec 983c 40a9 78bb b080 c5bc 8a0e cc3c
000002e0: f634 02bc c0d7 74ba f428 c33b 09b0 46bc
000002f0: 60b0 c2bb 59b3 37bc 548e c3bc 3d06 6cbc
00000300: ee2d a23c a8a1 893c d252 18bc c00c d639
00000310: 5eeb b73c 343b 463c eac8 a03c b542 78bc
00000320: ac38 cb3c 2c85 253c 08aa 093c 2874 6a3c
00000330: 008d d9bb 0a11 8bbc ef7e 6ebc e88d 913b
00000340: 9056 3fbc dc80 8b3c 8c32 253c 2ccb 2f3c
00000350: acc2 ac3c 64ac a73c 708b 693c 80ab 9e3b
00000360: dafa 97bc 805b bd3c a2e2 9b3c e856 823b
00000370: 4a35 b63c 22c2 af3c 6c05 63bc 37ce 4bbc
00000380: d280 aabc b589 5abc 5ed0 873c 00d3 f139
00000390: d4c6 0f3c 0870 eebb c5c8 84bc 9980 94bc
000003a0: e883 a9bb b4b1 94bc 4223 b53c dca4 0bbc
000003b0: 3c8c 393c bf88 31bc 404f 22ba a71b 72bc
000003c0: 28ad ca3c c002 9b3a 8a19 07bc bd6c 5cbc
000003d0: f28b 8d3c fc92 eebb c4b5 8c3c fccd 7f3c
000003e0: 78ff 23bc 8ca5 eebb 6eb6 44bc 2c68 c5bb
000003f0: 00b4 7eb9 f0c1 2ebb ca8c 6cbc 6ba3 9dbc

out.bias f4 [10]
0.0063908584 0.010406256 -0.0063109696 -0.020785712 0.02430918 0.018777851 -0.009680117 0.006980635
-0.013787216 -0.015141436
00000000: 686a d13b 007f 2a3c 40cc cebb cc46 aabc
00000010: 0c24 c73c 02d4 993c 5a99 1ebc d0bd e43b
00000020: c6e3 61bc c913 78bc
